output/3x3Traffic-domain-MADDPG-test/best.pth (torch, 62255 bytes, 14 tensors)

fc_net.fc_net.0.weight f4 [64, 132]
00000000: ee57 9fbd 6c75 a0bd 4069 b8bb c6ef 853d
00000010: 10e7 1f3c 94c0 543d fa9c a93d 4184 33bd
00000020: dfc1 7bbd 48d6 3abc 6ebb 0d3d d06f 8a3d
00000030: 1a64 28bd acfa 26bd 343c 81bd e0a0 debb
00000040: 44ef 2d3d f1c1 a5bd 0617 7fbd 788e 86bc
00000050: e04c c23b b0dc 753c 57c3 7bbd e975 11bd
00000060: 0741 21bd b05a 283d fac8 923d d3a5 41bd
00000070: ae33 9dbd 9f41 4cbd 2075 28bb 708d 373d
00000080: 2009 1abb cbdb 93bd b002 573d 1cad 2f3d
00000090: a8bd cdbc 2cce 86bc 422e a8bd d88b 84bc
000000a0: 8cee f2bc 2fe7 03bd 70bf eb3b 8ef2 d5bc
000000b0: 03bf 0ebd d0a1 efbb 28dc e2bc 2836 92bc
000000c0: 6c74 e6bc 3829 acbc 6503 6fbd 7503 b2bd
000000d0: 60b5 543c ba42 1ebd 0821 63bc 8871 393d
000000e0: a15b 3fbd 5fbe 24bd 909c b2bb 8469 843d
000000f0: 30da 31bc 784d 5b3d d76f 85bd 0d5d 07bd
00000100: 02ad 183d 108f 6b3d 9020 30bd cc54 503d
00000110: 0698 a3bd c031 cfba 7a68 49bd 4802 773d
00000120: 58e1 123d 3cea 773d b03a 86bc 00ee 9a3b
00000130: 5838 c33c 925f 14bd 60f4 383d 67bc 63bd
00000140: 7358 b1bd de1d 9dbd afed 47bd b43f cc3c
00000150: dc86 133d 1897 71bd 4290 e1bc 78f7 8bbc
00000160: 48d9 893d 925c 883d 0081 943c 00da 703c
00000170: 7057 583d aacc 71bd 113c abbd 5924 b0bd
00000180: b75e 27bd 9a7c 823d 88c7 d43c 1829 b7bc
00000190: 6123 96bd e0fa 703d c533 7fbd ed66 31bd
000001a0: 844f 863d 2f1c 15bd c092 5c3d 787e 6a3d
000001b0: 00a8 1b3c 00a4 973b 2894 8fbc 007d 86bc
000001c0: b89e 8c3d 1c2a 213d 78a6 063d dcdc 713d
000001d0: fc8b 843d 6009 8c3b 54de 903d 805d 433d
000001e0: c815 00bc 4c07 a5bd c08f 19bc 5814 33bc
000001f0: 7de8 30bd 2480 2a3d 30f2 8abd d49a 2a3d
00000200: 7c70 eebc b05e 97bd 34a0 ca3c 9f86 57bd
00000210: a466 bf3c 385f 16bd 6c0c ebbc ba5f 923d
00000220: 04f2 7d3d 5816 81bd e0b8 103c 1a5e 7ebd
00000230: a051 633d c69a 813d 5ac8 a4bd acc5 d8bc
00000240: a03b 2abd a8d9 a33d bd45 a5bd 1827 4e3c
00000250: 6380 2bbd 315a 2fbd 60ec f23b 9dda 18bd
00000260: 5c87 9dbc 2054 14bc 7579 54bd 4b4f 9cbd
00000270: 16ed 033d 7a74 46bd f0b0 d4bb 94d9 3e3d
00000280: 90dd c7bc 309d 66bd c1af 86bd fe4d fbbc
00000290: 7c68 6f3d b4f4 99bc 64fd 7d3d 104a 8abd
000002a0: db61 b1bd f4bf a3bc c0a8 62bb 0492 0ebd
000002b0: 98e1 3d3d d03d 87bb 800f 7d3b cc8c 203d
000002c0: 8862 283c 2c72 afbc 68bd 363c 629f 82bd
000002d0: 0476 efbc 8997 81bd d7ac 32bd 1412 163d
000002e0: a372 20bd 8e2c a63d 8846 7e3d 04d2 2dbd
000002f0: c2da 1dbd 4089 a43a 7372 9fbd 8092 44bd
00000300: 5077 3abc 027c 803d 7c5c ac3d 7cf1 32bd
00000310: 8e1a a53d c035 883d f51f 5abd 64ea fe3c
00000320: bc88 983d 5801 33bc a859 303d e8c5 f43c
00000330: b09a 6b3c 13a0 01bd d603 963d bc01 5abd
00000340: b4b2 9a3d 1069 92bd 80cd 4e3d a812 933d
00000350: c436 e33c 8c5a 323d bcf7 833c f130 86bd
00000360: 049c 543d b0be 7a3c 324c 96bd 6ef9 083d
00000370: 0067 533b fca7 253d c678 4cbd 8106 87bd
00000380: 54d7 7e3d 200e 8e3d a820 5f3c d033 b23d
00000390: a89d 6abc 40c6 3cbb 7806 4c3c 0c6d 80bc
000003a0: b4a8 b13c 4cb0 9d3d 0c67 953d 9ca6 8a3c
000003b0: eb51 aebd 0c50 36bd 993f a0bd 80a0 653b
000003c0: cd7c 7dbd 48b1 f73c cb12 57bd f661 0f3d
000003d0: cc9d 85bc f679 883d 803c 9e3d 9d15 8cbd
000003e0: ea20 84bd 0d7d 63bd d424 853d f82a 8dbd
000003f0: 6837 353d 90f2 d83c e497 853c 2659 a93d
-0.07780443 -0.078348964 -0.005627781 0.06539874 0.009759679 0.05194147 0.08281894 -0.0438273
-0.061464187 -0.011403628 0.034602575 0.06759608 -0.04111109 -0.040766403 -0.06310311 -0.00679408
0.04246451 -0.08093632 -0.062277816 -0.016425356 0.0059295744 0.015006229 -0.061465587 -0.03551284
-0.039368656 0.04110211 0.071672395 -0.047277283 -0.07675873 -0.04986727 -0.0025704578 0.04481262
-0.0023503974 -0.072196566 0.052492797 0.0428897 -0.02511485 -0.016455732 -0.08211948 -0.016179964
-0.029654764 -0.032202896 0.007194452 -0.026116636 -0.03485013 -0.0073129907 -0.02769287 -0.01784809
-0.028131686 -0.021015748 -0.058352847 -0.086920656 0.012982696 -0.038637854 -0.013862856 0.045274287
-0.046718244 -0.040220615 -0.0054507926 0.06465438 -0.010855243 0.053540677 -0.065154724 -0.033047725
0.037274368 0.057509482 -0.042999804 0.05086212 -0.079879805 -0.0015807673 -0.049171902 0.06030491
0.035859436 0.060526118 -0.016385406 0.004728079 0.023830578 -0.036223955 0.04515493 -0.055599596
-0.086594485 -0.07671712 -0.048810657 0.02493272 0.036017284 -0.058981985 -0.027534608 -0.017085776
0.06730896 0.066582814 0.018127918 0.014700413 0.052817762 -0.059033073 -0.08361066 -0.08600683
-0.04086181 0.06371422 0.02597405 -0.022358462 -0.07330967 0.058833003 -0.06230523 -0.04331105
0.06558135 -0.03640383 0.05385089 0.057249516 0.009500504 0.0046277046 -0.017526701 -0.016417027
0.06866211 0.0393468 0.0328736 0.05904852 0.064720124 0.0042735785 0.07073656 0.04769659
-0.007817693 -0.080580324 -0.009372652 -0.010930143 -0.043190468 0.04162611 -0.06784475 0.04165156
-0.029106371 -0.07391107 0.024734594 -0.05261862 0.023364373 -0.0367119 -0.028692447 0.07147165
0.061998382 -0.0630309 0.00883314 -0.06210146 0.055497766 0.06328349 -0.080460265 -0.026461445
-0.04156077 0.08000499 -0.08069942 0.012582563 -0.041870486 -0.042810623 0.007413432 -0.03731786
-0.019229583 -0.00905326 -0.051873643 -0.076323114 0.032208525 -0.048450924 -0.006490819 0.046594217
-0.024397641 -0.05630225 -0.06576491 -0.030676838 0.058449253 -0.018793441 0.06200923 -0.067524076
-0.086612426 -0.019988991 -0.0034585446 -0.03480722 0.04635772 -0.0041272417 0.0038613975 0.039196774
0.010277398 -0.021416746 0.011153556 -0.06378056 -0.029231079 -0.06327731 -0.043621864 0.036638334
-0.039171826 0.08113967 0.062078983 -0.042436615 -0.0385387 0.0012553111 -0.07785501 -0.047991276
-0.011380985 0.062736526 0.084160775 -0.04368733 0.080617055 0.06650877 -0.053253133 0.031117626
0.07447955 -0.010925613 0.043054253 0.029879525 0.014380142 -0.0316468 0.073249504 -0.05322431
0.07553616 -0.07148945 0.05048895 0.07181293 0.027736075 0.043543383 0.01610934 -0.065523036
0.0519066 0.0153042525 -0.07338752 0.033441 0.0032257438 0.040443406 -0.049919866 -0.065930374
0.06221707 0.06936288 0.013618626 0.08701289 -0.014319815 -0.002880469 0.012452714 -0.015676998
0.02168689 0.076996416 0.07295045 0.016925149 -0.08511718 -0.044509932 -0.0782463 0.0035038292
-0.061886597 0.030235901 -0.052508157 0.035005532 -0.016310595 0.06663887 0.07726383 -0.0684006
-0.0645159 -0.05553918 0.06501165 -0.06892961 0.044242293 0.02648285 0.016307779 0.08268957

fc_net.fc_net.0.bias f4 [64]
00000000: c09f 19bb 84e1 b73c 4945 26bd 1c68 573d
00000010: 0cb0 983d 801c 0e3c 40df 83bb c4b9 89bd
00000020: 98dd 453d c87d 543d 782f 91bd 003e e5ba
00000030: 36f0 20bd 7251 8a3d 9445 9ebd 60a8 d6bc
00000040: 9638 873d 98d8 703d c460 733d 68e3 673d
00000050: d889 bc3c d45b dc3c 7cfd 943c 2098 64bc
00000060: a02d 443b 8058 1bba 907a 9c3b 4676 a63d
00000070: 0be9 0abd d033 ba3c 62bd ab3d e8e2 913d
00000080: 14e4 af3d ca76 093d 7ac6 adbd 7aa8 973d
00000090: d8a7 a6bc daae a73d a008 a23d 2966 82bd
000000a0: 588a 6a3c 6e3c ab3d c041 b1ba 802f 96bd
000000b0: 9830 6e3d e601 20bd 9c6c 963d 2833 c43c
000000c0: 4c64 803c 1048 a53c 3024 ac3b f8b4 c33c
000000d0: a67a 833d 6d1f 50bd 90a6 a93d 5b6c a7bd
000000e0: 8726 52bd ee6b 133d 18bb 3cbc 40d1 8fbb
000000f0: 7679 0bbd 00aa 623c 8c80 c93c f44a 663d
-0.0023441166 0.022446401 -0.04059342 0.05258952 0.07455453 0.008673787 -0.004024416 -0.06724885
0.04830703 0.051877767 -0.07089132 -0.0017489791 -0.039291583 0.06753816 -0.07728115 -0.026203334
0.0660259 0.05880031 0.059418455 0.056613356 0.023014948 0.026899256 0.018187277 -0.013952285
0.0029934421 -0.0005925968 0.004775353 0.081280276 -0.033913653 0.022729784 0.08385731 0.07123357
0.08588424 0.03356055 -0.08485122 0.07405181 -0.020343706 0.08187647 0.07911801 -0.06367142
0.01431521 0.083611354 -0.0013523623 -0.07333279 0.05815181 -0.03906431 0.07344934 0.023950174
0.015672825 0.020175964 0.0052533373 0.023890004 0.06419878 -0.05081122 0.082837224 -0.08174964
-0.051306274 0.0359916 -0.011519216 -0.004388958 -0.03405138 0.0138344765 0.024597429 0.056223825

fc_net.fc_net.2.weight f4 [64, 64]
00000000: 10ec 42bd 3892 f33c d86d e93d c0fa d73b
00000010: 6825 ef3d 764d cdbd f0a0 37bc 8640 c8bd
00000020: e86f 743d d0ab 82bc 5c09 1cbd 7a92 dabd
00000030: 2297 d2bd da01 963d d04b d03d 80ab f9bd
00000040: 847d 00bd c824 d3bd 6c3f bd3d 2e4e 80bd
00000050: 70af 113c deb4 8f3d e489 d03d e048 863b
00000060: 2053 ee3b 4874 0cbd 3a52 e13d b8f3 43bd
00000070: 6887 f23c 405a c3bb 1423 c0bd 78f1 1cbd
00000080: fc5b cbbd b47a ea3d 1e14 f8bd 36df 9dbd
00000090: f029 5b3d 34a3 64bd 3ac3 fc3d 1030 953d
000000a0: 3856 b83d 823d d03d b049 cabd 08ef a6bc
000000b0: f002 653d fec3 e53d 6c65 7dbd 72b6 a13d
000000c0: 66b9 ff3d e88a 76bd 06cb 83bd f0bb 17bd
000000d0: 0054 0abb a054 95bc 9829 913c fc50 14bd
000000e0: 8460 eb3d 12d6 a53d 9c56 da3d 442e 7d3d
000000f0: 9eec ed3d 547f 47bd f65e d5bd 1267 86bd
00000100: 18c2 993d 8010 e4ba 7c77 3fbd 826e f1bd
00000110: a48c f53d ec9b 1fbd 9858 2d3d a051 aebb
00000120: 5aa4 eebd 004f 3e3d 92ff b13d 7ac9 ac3d
00000130: d02c 4d3c bea0 cfbd e8ea 123d 1ec5 d73d
00000140: 348b 75bd 10cc 213d 007e 453d 887e 2e3d
00000150: 909e ae3c 340e d83d 284f 46bd 4cb1 c2bd
00000160: d020 a5bd f605 eebd aaea acbd 1025 243d
00000170: 78a8 b43d 0014 47bb 122d df3d fca8 803d
00000180: fcec cb3d e03e 903c 9cbc e13d 268b e73d
00000190: 46fa a93d 56fb a93d 7450 b7bd 8682 c73d
000001a0: 5082 fabc a077 d63d 90b8 babc 000d 25bb
000001b0: 0054 3ab9 dcc1 45bd 12ef b23d e039 c9bc
000001c0: a820 933c 0a36 c0bd a268 a03d b095 993d
000001d0: d826 e0bd 703d ae3d 9eb1 80bd f63e 99bd
000001e0: a068 99bb 882a aabd 50b4 d1bc f029 32bd
000001f0: 3859 ddbd 8cd8 1cbd de0a ef3d e899 123d
00000200: 2ad9 eebd 62f2 ebbd 70e3 783c 40e1 b4bd
00000210: f6a9 e4bd d89b 333d 2863 8d3d 48ef d0bd
00000220: e826 f3bd 405b d73b ec1a d33d 208b 7a3d
00000230: e4c6 96bd 1cff ddbd 4870 643d a881 cfbd
00000240: c288 b53d 12b4 f5bd 10d3 453d 887a a5bc
00000250: 1a80 df3d dce9 6bbd e0ff 233c d60c f73d
00000260: c4cf 353d d409 2e3d 945a 8abd d85e 31bd
00000270: f0de 463d 4ec6 a4bd 9c16 6abd 5480 b23d
00000280: 32bc f9bd 46de bdbd b23c efbd 88cd 3abd
00000290: bcb7 4c3d 4494 363d 44e7 223d c8e8 c8bd
000002a0: 98a6 9bbc 60cd 97bd e853 113d 8af8 dbbd
000002b0: d001 f2bc e087 c2bd ac4d c73d bc8f 5ebd
000002c0: 8481 9cbd a000 dcbd a46c d73d 5042 49bc
000002d0: b434 353d 1c83 fa3d c0f2 76bc e4a8 96bd
000002e0: 7817 ddbc 80cb ff3a 480b f2bc f08b d5bc
000002f0: 424b e43d 8816 403d 589c 153d 9a6d 99bd
00000300: 30c7 56bc 8a28 9dbd f00e 3f3c 98a1 2b3d
00000310: 66ba a1bd 4e03 aa3d 9ee2 863d 52ed d3bd
00000320: 4097 9bbd baec a0bd 882a 943c 40bf ce3c
00000330: 6cfd eebd d8e1 ac3d 280e cd3d ace8 593d
00000340: 4879 4a3d d0c3 0abd 5c3c 283d 10b1 9bbd
00000350: e812 afbd aabc d3bd 129b 8cbd 6cc5 54bd
00000360: ecab bd3d b402 513d b493 59bd eca5 203d
00000370: 14de 9b3d 3075 30bd 18b5 ad3d f8af b13c
00000380: c0f9 2bbc 82df ebbd 68cc 933c b035 99bc
00000390: f0cc 043d 9457 353d 7689 a8bd e073 313c
000003a0: b49f 553d a6b4 c9bd 40a0 bdbb c4de 8d3d
000003b0: 04de 1a3d 0412 273d c45a 6abd e444 63bd
000003c0: 1a89 adbd 9e1c 97bd 40e0 53bb 6832 c93d
000003d0: 100d dd3c 00e4 3939 3044 6dbd a031 04bd
000003e0: f887 eebc 78cd 683d ecc7 d5bd a842 b8bc
000003f0: 4e58 df3d 8a0f dcbd 806f 983b 58b4 e6bd
-0.047588408 0.029732808 0.11397904 0.006591171 0.116770566 -0.1002454 -0.011207804 -0.09777932
0.059677035 -0.015951067 -0.038094863 -0.106724694 -0.102827325 0.07324572 0.1017071 -0.12190914
-0.0313697 -0.1030975 0.092406124 -0.062649116 0.008891925 0.070169196 0.101825505 0.004098043
0.007273093 -0.034290582 0.110020116 -0.04783985 0.029605582 -0.0059616864 -0.093816906 -0.03831622
-0.09929654 0.11449185 -0.12113212 -0.0770859 0.05350679 -0.055819705 0.12341924 0.07284558
0.0900082 0.10167982 -0.09877336 -0.02037765 0.055911005 0.11219023 -0.0618643 0.07896127
0.12486534 -0.060191065 -0.06435208 -0.037044466 -0.0021107197 -0.018228829 0.017720029 -0.036210045
0.11493018 0.08097471 0.10661051 0.0618117 0.11617397 -0.048705414 -0.10418503 -0.06562628
0.075077236 -0.0017399937 -0.04674481 -0.11788656 0.11989716 -0.038967058 0.042320818 -0.005319789
-0.11652441 0.04646206 0.08691324 0.08436866 0.012522891 -0.10138081 0.035868555 0.10535644
-0.059947208 0.03950125 0.048215866 0.04260114 0.021315843 0.10549584 -0.048415333 -0.09506473
-0.08062899 -0.11622231 -0.08443196 0.040074408 0.08821195 -0.003037691 0.10897268 0.06282231
0.099573106 0.017608106 0.110223025 0.11305837 0.08299689 0.08299892 -0.08950892 0.09741692
-0.030579716 0.104720354 -0.022793084 -0.002518475 -0.00017769635 -0.04828058 0.08737005 -0.02456373
0.017959908 -0.09385307 0.07832457 0.07499254 -0.10944909 0.08507812 -0.06283878 -0.07482712
-0.0046816617 -0.083088934 -0.025598675 -0.043497026 -0.10808033 -0.038292453 0.116719946 0.035791308
-0.116625145 -0.1152084 0.015190944 -0.088320255 -0.1116523 0.043849796 0.06903678 -0.10201889
-0.11872655 0.006572157 0.10307869 0.061167836 -0.07362154 -0.10839674 0.055771142 -0.10132152
0.08863975 -0.11997236 0.048296988 -0.020200029 0.10913105 -0.057596073 0.010009736 0.12062995
0.044387594 0.04248984 -0.06755558 -0.04330334 0.048552454 -0.08045636 -0.05715047 0.08715883
-0.121940985 -0.09270911 -0.116814986 -0.045606166 0.04997991 0.04457499 0.039771333 -0.098100245
-0.019000337 -0.07412219 0.03548041 -0.107407644 -0.02954188 -0.09498572 0.097316116 -0.054336295
-0.07641891 -0.10742307 0.105187684 -0.012283877 0.044239715 0.122320384 -0.015072525 -0.07356432
-0.02698873 0.0019515604 -0.029546395 -0.026067704 0.11147167 0.046896487 0.036526054 -0.07491608
-0.013109013 -0.07673748 0.011661276 0.041902155 -0.07896881 0.083014116 0.065861925 -0.10348
-0.07597208 -0.07857652 0.018086687 0.02523768 -0.1166943 0.08441514 0.10012466 0.05320041
0.04943207 -0.033878148 0.04107319 -0.07602131 -0.08548528 -0.10338719 -0.06865515 -0.05194609
0.09261307 0.05102797 -0.053119376 0.039220735 0.076107174 -0.04308051 0.084818065 0.021690354
-0.010496557 -0.1151724 0.018041804 -0.018702358 0.032422006 0.044272974 -0.082293436 0.010830849
0.052154258 -0.09848909 -0.0057869256 0.06927255 0.037809387 0.040788665 -0.057215467 -0.05548562
-0.08473416 -0.07378505 -0.0032329708 0.09824067 0.026983768 0.00017727911 -0.057926357 -0.03227389
-0.02911757 0.056836575 -0.10438523 -0.022492722 0.10905515 -0.10745151 0.0046519637 -0.112648666

fc_net.fc_net.2.bias f4 [64]
00000000: 501c 91bc 7acb da3d 0040 33b8 065d b13d
00000010: 00d8 26bb e099 febd 4c38 113d befa e03d
00000020: fcdf d83d 8036 11bb 062f d63d be59 f83d
00000030: c082 7a3d 289f ae3c 60dc 5c3d c0eb 7cbb
00000040: c4be 623d aa38 f7bd 2034 11bc 903d 83bc
00000050: fa11 b3bd 6070 173c 8e05 e13d 806e 95bd
00000060: 6c9f 7d3d dc96 e6bd b0d6 62bd cad9 d8bd
00000070: 689a c43d 5820 a4bd b09f 05bd 0094 6439
00000080: 8299 d63d 48e0 ebbc 20a7 dcbc 04b9 e3bd
00000090: e0f2 24bd 70ea dabc e462 4d3d a44c 32bd
000000a0: c2ef d7bd 3062 493d 5a1e db3d f417 5a3d
000000b0: ec23 1d3d 0c19 a83d f024 a0bd eccd 1b3d
000000c0: 98a4 9f3d 68ea f7bc 801d dcbd 7235 a1bd
000000d0: b288 b1bd 92a9 ebbd 508e 483c 006c 3c3b
000000e0: fab2 fdbd 987f 2a3d 6805 673d 3c9d a6bd
000000f0: 9229 d7bd a8ed 12bd f8c4 583d fcab 2bbd
-0.017713696 0.10683341 -4.273653e-05 0.08660321 -0.0025458336 -0.12431693 0.03545408 0.10985325
0.10589597 -0.0022157729 0.10458188 0.12126492 0.06115985 0.021316126 0.053921103 -0.0038592666
0.05535771 -0.12071355 -0.008862525 -0.016020566 -0.08743663 0.009243101 0.109873876 -0.07296467
0.061919615 -0.11259243 -0.055380523 -0.10588415 0.09599763 -0.080139816 -0.032622993 0.00021798909
0.10478498 -0.02879347 -0.02693516 -0.11119273 -0.040270686 -0.026723117 0.050143138 -0.04353012
-0.10543777 0.049165905 0.106991485 0.0532455 0.038364336 0.08207902 -0.07819545 0.03803818
0.07795066 -0.03026314 -0.10747814 -0.07871522 -0.08668651 -0.11506952 0.012240961 0.0028750896
-0.12387653 0.04162559 0.05640164 -0.08135459 -0.10505976 -0.035871178 0.05292222 -0.041912064

fc_net.conv_net.0.weight f4 [4, 1, 4, 4]
00000000: 0c1b fd3d d830 323d baa2 253e 78c3 1d3e
00000010: 26cd 32be 666a 46be 8810 033e e0c6 ee3c
00000020: ae67 733e 4091 2cbc 1435 a83d 20ef 45bd
00000030: 804c 15bc 60b3 eabd a826 c9bd a4f7 c83d
00000040: c4dd 1ebe 80ae f53d 443d 793e c002 783e
00000050: 4068 c7bd acaa 3c3e 4eea 32be e43a 743e
00000060: 7a2c 403e 4827 40bd 7025 23bd e0cf 7ebc
00000070: 3464 8c3d 946f e6bd d262 32be 4801 f53d
00000080: 32f9 5d3e aab9 023e 7c95 7dbe babc 15be
00000090: 8016 20be e488 81bd 1e91 6fbe 9071 8dbd
000000a0: 3c55 16be 22ad 74be b033 383e 4013 13be
000000b0: 0efc 67be e213 593e c065 44bc 8037 7f3b
000000c0: b4e4 603e b8b5 04be 4a85 0ebe 000f 09bd
000000d0: 1497 a03d 8c3b a03d 00f0 113a 1c38 2abe
000000e0: 6cbb 99bd 6c56 e0bd 7ab8 183e 2e09 77be
000000f0: a0f7 7e3c 94f3 f7bd 9a1e 5cbe a46a 7a3e
0.123586744 0.043503612 0.16175357 0.15406597 -0.1746107 -0.19376525 0.12799275 0.029147565
0.2377002 -0.010532677 0.08213249 -0.04832375 -0.009112477 -0.11459994 -0.09821826 0.09812859
-0.15514284 0.11996174 0.24339777 0.24219799 -0.09736681 0.18424481 -0.17472193 0.2385059
0.18766966 -0.04691246 -0.039830625 -0.015552491 0.0685505 -0.112517506 -0.1742051 0.11963135
0.21677092 0.12766138 -0.24764055 -0.14622775 -0.15633583 -0.06324938 -0.23395202 -0.06906426
-0.14680952 -0.2389417 0.17988467 -0.14362812 -0.22654745 0.21198991 -0.01198715 0.0038942993
0.21962243 -0.12959945 -0.13918033 -0.03346157 0.07841316 0.07823858 0.0005567074 -0.16622967
-0.07506451 -0.10953984 0.14914122 -0.24124596 0.015561968 -0.12107006 -0.21496049 0.24454743

fc_net.conv_net.0.bias f4 [4]
00000000: 80bf 90bd 088b 72bd 248b a13d f0d3 e03d
-0.07067776 -0.05921462 0.07887867 0.10977924

fc_net.conv_net.2.weight f4 [8, 4, 4, 4]
00000000: 789f ac3d 4e0a a2bd 0a6c a53d 1090 01bc
00000010: 5486 c5bd 80f2 98ba 78b1 c3bd 7c61 5b3d
00000020: 209f 97bb b82d bf3d 9258 953d 5c5c 983d
00000030: 1870 a4bd 0c3a fdbd f84d d4bd 28a3 713d
00000040: a855 5b3d 54c0 8ebd 90e8 22bd e093 523d
00000050: a022 743d 38ef bd3c e8bc b0bd eac6 f53d
00000060: bcc2 90bd 48da 7dbd b251 dcbd d8b0 bd3c
00000070: ec41 883d 14cd ffbd c4c0 32bd 7c56 703d
00000080: 2835 4fbd b47b 103d 923f bebd 4c4e 2b3d
00000090: 7026 9dbc 207c 87bb 924f c23d cc78 7e3d
000000a0: c86c e4bc 80a9 2a3b 5cdd 393d a84f a23d
000000b0: d85c 8dbc 72af d83d 7870 ba3c a0fb 93bb
000000c0: 86cb 8c3d f0af e6bd 54dd b8bd f898 973d
000000d0: c8a9 673d 54ef 50bd 60f0 1e3d ce3b bcbd
000000e0: c02c 82bc d6a0 d43d 14be ccbd 48f8 f53d
000000f0: 0061 0bbc d2bc 9a3d 9a1d c13d 3c30 f43d
00000100: a0e6 123c c08c 5b3c ec5a 84bd a26c d8bd
00000110: c0a1 19bc 98f7 b23d d097 0c3c 8e58 bdbd
00000120: 4065 efbc 444f a03d 1830 a73d a48c a6bd
00000130: 6ee3 cc3d 0c03 4cbd 7238 f3bd b046 393c
00000140: 5073 653d 2003 bbbd b4c1 4a3d d245 ee3d
00000150: 2474 80bd b018 c43d 74ae 32bd 4cf0 303d
00000160: 1626 b73d cc42 b53d 6eb7 b33d 4e5e 8bbd
00000170: 00fd d63a e87c c73c 6ee3 fdbd c0f7 903d
00000180: 08ce b8bc 48a0 a7bc d03c 863c 3642 d1bd
00000190: 60cc 263d d034 f13d ceb9 9fbd 8020 963c
000001a0: 489a fb3d 0066 f13b 006b f93c 3a5c c33d
000001b0: e2e4 9abd 4004 a73b 9415 35bd 90ac 723d
000001c0: 92e3 fabd 7a9e 99bd 6c4f 1fbd 10bd 98bd
000001d0: f091 babc 0cda b6bd 883b a1bc 8c31 81bd
000001e0: b0c7 b6bc 7cdd e6bd 206d a6bd a8e2 11bd
000001f0: 9892 ebbd 8a84 a6bd 7c6c acbd 6884 d8bd
00000200: 6897 f53d f29c f83d 5a8d fe3d 4afb f13d
00000210: 3866 a2bc 5241 fc3d 18f1 85bd f06c 25bc
00000220: 9e70 c6bd b050 373d 0ee1 8f3d 88b7 5dbd
00000230: 60bb 743d e05c 3c3c 7c1b 45bd dca4 fa3d
00000240: 9c8e 44bd cc00 9f3d b0ae 3bbd 4021 09bb
00000250: b83d 833c f86d 8abd acd6 27bd e8d4 9abd
00000260: 46d8 d1bd 909e 2dbc 2034 da3c 9080 a4bd
00000270: f20b ed3d dab9 af3d 68af d33c 4085 d83d
00000280: 00c9 ba3d 3a81 8cbd f03e 1ebc 7822 a93d
00000290: d091 b6bc 9063 f9bd 6067 dd3c 7038 383c
000002a0: 02e7 a93d 00e0 e6bb 34a5 2abd 38aa 423d
000002b0: 6c24 15bd 008f 96bb 7059 913d 48d6 773d
000002c0: 72c1 af3d f827 3fbd 9615 f1bd b8c5 84bd
000002d0: 1880 e33c 26e4 afbd 1805 d8bc 008e c1bc
000002e0: 6a91 9dbd 5eaa db3d 14d5 f13d 98dc e63c
000002f0: b423 8d3d 4066 edbb 0404 c33d 403d f83b
00000300: c269 9bbd 001d e9bd 32f4 a93d 808d e0bd
00000310: a83d 4f3d d8c1 b03c 1059 193c b0d3 a03c
00000320: d805 d7bd f0dc 5f3c 6ad9 c93d a295 d5bd
00000330: ec81 b9bd d49f 793d 46fe a3bd be9e 83bd
00000340: 7020 bc3c 449b d03d 3ab0 e23d d87f 943d
00000350: acac 613d 806f 883b 42fc f53d 9e2d e53d
00000360: e0f4 5ebd acc3 233d b8d5 a2bd 7cc5 103d
00000370: 72b1 9a3d 10c3 583c 10ce 1a3c 00c4 7abc
00000380: 0079 663c a0ed 693c 3027 343c a41a 943d
00000390: 7804 3abd 8a42 fd3d 80aa f5ba d4e4 cdbd
000003a0: be11 ce3d 0e9d 9dbd 2214 aebd 8692 f53d
000003b0: 1c5f 7f3d e666 bf3d f088 2e3d 568b a0bd
000003c0: b0b1 5e3d 0443 993d e484 07bd 02ea 933d
000003d0: a840 083d b01d ad3c 9847 a8bd f8cd d33d
000003e0: 9898 abbd 3a6e df3d 3c65 963d 1838 c7bd
000003f0: fc4d 1bbd 9613 d93d 28dc ff3d cca1 583d
0.08428854 -0.07912122 0.080772474 -0.007907882 -0.09644762 -0.001166895 -0.09555334 0.053559765
-0.0046271235 0.09334892 0.07292284 0.07439491 -0.08029193 -0.12364587 -0.10366434 0.05899349
0.053548485 -0.069702774 -0.03977257 0.051410556 0.059603333 0.023185357 -0.08629781 0.120008305
-0.07068393 -0.061975747 -0.1075777 0.023155615 0.066531986 -0.124902874 -0.043640867 0.058676228
-0.050587803 0.035274222 -0.09289469 0.041822717 -0.019183367 -0.00413467 0.09487833 0.06212692
-0.027883902 0.0026040971 0.04537712 0.079253495 -0.017256185 0.105803385 0.022758707 -0.00451608
0.068747565 -0.11264026 -0.0902659 0.07402223 0.0565584 -0.05100949 0.03880346 -0.09191094
-0.01589048 0.103822395 -0.09997192 0.120102465 -0.008507013 0.07555546 0.09429474 0.119232625
0.008966118 0.013400257 -0.064626545 -0.10567595 -0.009376943 0.08738631 0.008581117 -0.09245406
-0.029223084 0.07827619 0.0816347 -0.08132294 0.10004316 -0.049807593 -0.118760005 0.011308357
0.056018174 -0.091314554 0.049501136 0.11634411 -0.06272152 0.09575021 -0.043623403 0.043197915
0.08942811 0.08850631 0.08775221 -0.068050966 0.0016402304 0.024351552 -0.123968944 0.070785046
-0.02255918 -0.02046217 0.01638642 -0.10217707 0.04072225 0.11777651 -0.07799111 0.018326044
0.12285286 0.0073668957 0.03044653 0.09539075 -0.07563187 0.005096942 -0.04421003 0.0592466
-0.12250437 -0.0750093 -0.038894102 -0.07457936 -0.022774667 -0.08928308 -0.019681707 -0.063082784
-0.022312015 -0.112727135 -0.08126283 -0.035616547 -0.1150257 -0.081307486 -0.08419129 -0.105721295
0.11991769 0.1213931 0.124293044 0.11815508 -0.019824132 0.12317146 -0.065401256 -0.0100967735
-0.09689449 0.044754684 0.07025348 -0.054130107 0.059749007 0.0114967525 -0.048121914 0.12238476
-0.047987565 0.07763824 -0.04582089 -0.002092436 0.01602064 -0.06759256 -0.04097621 -0.0756014
-0.10246329 -0.010596886 0.026636183 -0.08032334 0.11574544 0.0858037 0.025840476 0.105722904
0.09120369 -0.068605855 -0.00965856 0.082585275 -0.022286326 -0.12177193 0.027026832 0.0112439245
0.08296014 -0.007045746 -0.041661456 0.047525615 -0.036411688 -0.0045946836 0.07097137 0.06050709
0.08581819 -0.046668977 -0.11771695 -0.06483024 0.02777104 -0.08588438 -0.026369616 -0.023627281
-0.07693751 0.10725854 0.118082196 0.02818136 0.068915755 -0.007244855 0.0952225 0.007575661
-0.07588531 -0.113824844 0.0829853 -0.10964489 0.05059591 0.021576807 0.009359613 0.01963219
-0.104991615 0.013663515 0.098559216 -0.10428931 -0.09057984 0.06094344 -0.08007483 -0.06426762
0.022964686 0.101858646 0.11068769 0.07250947 0.055096313 0.0041636825 0.12011005 0.111903414
-0.05443275 0.03998153 -0.0795092 0.035344586 0.07553376 0.0132301 0.009448543 -0.015305519
0.014066935 0.014277846 0.010995671 0.07231644 -0.045414418 0.12366207 -0.001874283 -0.10053411
0.10061978 -0.076959714 -0.08499934 0.11990838 0.062346563 0.09345798 0.042611063 -0.07839076
0.054368675 0.07483485 -0.03308572 0.07222368 0.033264786 0.02113232 -0.082167804 0.1034202
-0.08378714 0.10909696 0.07343528 -0.09727496 -0.03791617 0.10599439 0.12493163 0.052888677

fc_net.conv_net.2.bias f4 [8]
00000000: 12d7 ed3d 740f 583d eaf4 febd 006c 17bc
00000010: 9896 b2bd 0483 733d 58a3 92bc 60a6 e53c
0.11613287 0.052749112 -0.124490574 -0.009242058 -0.0872013 0.059451118 -0.017900154 0.028033435

fc_net.conv_net.4.weight f4 [4, 8, 4, 4]
00000000: 195c 46bd d878 d83c 2158 b33d e325 b03d
00000010: 32ab 233d 7970 af3d 88e2 0bbc 64ca 9f3c
00000020: aca2 e93c 2e1f 48bd 44d1 6abd d39b 2bbd
00000030: 27c0 a23d 1bfd 12bd 7c07 c23c b90d 993d
00000040: b22e 7ebd a3e8 ab3d 7831 1abc 9fb2 57bd
00000050: f360 b13d 7f63 afbd c085 c7bb ba27 633d
00000060: 78e8 efbc e6b0 333d 3acf 3dbd 64c9 9abd
00000070: f6e3 5f3d f00f 0f3c 80b1 913c bfb1 8d3d
00000080: 063d 753d f2a1 373d de3b 723d 08e9 f9bc
00000090: f937 acbd 8847 5e3c 3079 fb3c 1c17 aabc
000000a0: a77c 6dbd f070 76bc 8470 e53c 50f7 b43b
000000b0: 027c f8bc 8b95 a03d a856 0fbc fe05 dabc
000000c0: 6c7c 103d d8ca a9bc 00e4 13ba 80b0 c2ba
000000d0: d8cc 5ebd b421 b0bc 9adb 5e3d f8c5 003c
000000e0: 00a9 ad39 909f d23b 669e a0bd 932b 8abd
000000f0: 566a 87bd 0833 94bd cb96 3bbd 3acc 263d
00000100: 40d1 de3b 3206 243d d4a4 c5bc 61ca a43d
00000110: 7889 a5bc 50da 34bc 2998 803d 1e59 213d
00000120: b8e3 99bc c0a9 abba 5652 0b3d 6322 32bd
00000130: 383f c1bc 2601 2e3d 74ed 0f3d a9a1 16bd
00000140: 1aed 3e3d 7b60 833d 19d6 953d c4bb 9fbd
00000150: 2e51 723d a944 b2bd e459 9bbc cd3a 833d
00000160: 8033 623c 1bf1 23bd 9141 a0bd 1567 a03d
00000170: 4cc8 fa3c f692 373d edbf 28bd 33b7 58bd
00000180: 19e6 853d 8437 b7bc d4a6 83bd 0352 873d
00000190: 202d 383c c29e 3fbd 98d1 b8bc 0ea4 abbd
000001a0: 2087 9ebb 980e b73c 065c a2bd 08db 913c
000001b0: 6ba7 a83d 5685 163d b25c 5c3d eecf 453d
000001c0: 6998 91bd 8287 783d 80c7 4bbb 56d0 21bd
000001d0: 3bc9 9cbd 71ec 9f3d 5c4d b2bc 40a9 33bd
000001e0: 04ef 2abd a077 89bc a0f0 fabb 67f3 b4bd
000001f0: a827 193c fc24 adbc 8cbd 90bc 8442 98bc
00000200: 78bd 66bd bec0 1c3d e78a 63bd 10e3 5abc
00000210: 8b29 ad3d d89a cc3c 18c7 38bc ca10 29bd
00000220: ef60 43bd dce9 9f3c 5e71 93bd 0271 9fbd
00000230: e193 a43d c6a1 e3bc 0d40 abbd 89d4 38bd
00000240: da87 4f3d 3891 c53c 0679 0e3d c45d 53bd
00000250: 381a 753c 49b2 9c3d 909a 8f3c b01c aabd
00000260: c774 803d 802f 053a 78c4 f93c 7523 9b3d
00000270: 4242 183d 5537 863d 55f6 873d d80e a8bd
00000280: a168 39bd 25da 8c3d 82cf 6b3d f865 8d3c
00000290: beb6 26bd c8c2 19bc 004f c9b9 cd2a b1bd
000002a0: b0d2 bebc a895 16bc 8c00 9cbd 1a70 28bd
000002b0: 5efe 1b3d b2a2 7b3d d2dd 0dbd b064 e1bb
000002c0: 00dd 4bbd 3db6 98bd 0b0a 20bd acff bdbc
000002d0: ce63 96bd 08b4 47bc 00af 5abb e68b 733d
000002e0: 3017 f3bc 60b4 8cbc e5b5 aa3d 384d 20bd
000002f0: 9cf7 84bc 3ec6 643d 4dbd 8a3d 52a7 93bd
00000300: 0c0d c5bc 8c3b 47bd 983d d93c 9086 42bc
00000310: 984d 95bc 3086 afbb 40c8 563b ea44 643d
00000320: 6244 573d 3e51 08bd ea9c 5cbd c0c0 91bc
00000330: b198 b23d 8efe 6b3d 39b8 993d 38b7 a4bd
00000340: beb1 413d 88cd 3cbc 8187 963d e54e 87bd
00000350: 60f2 08bb f45c 0d3d 0034 94b8 1213 253d
00000360: 7205 b0bd 3035 443c 843e 84bd 8b85 993d
00000370: 7887 b2bc c607 4dbd eea9 393d a876 a7bd
00000380: 9ce8 43bd d0c8 733c b0c6 3dbd b454 9ebc
00000390: a221 8dbd 1b49 01bd b28f 363d 3700 a3bd
000003a0: 7dbf a73d fd44 883d e053 3a3b 0aa0 543d
000003b0: c629 59bd ae93 3f3d b5a3 a53d b0a0 44bd
000003c0: 068d 733d 3117 a3bd 16d1 423d 0006 2c39
000003d0: 8253 9dbd 7857 da3c 91ff 30bd 518d 51bd
000003e0: a7a3 04bd e201 363d 023d f0bc 450a b03d
000003f0: 74fb afbc 92c8 243d 3429 913c d50c 843d
-0.048427675 0.02642481 0.08757044 0.08600976 0.039958186 0.08566374 -0.008537896 0.019505687
0.02851995 -0.04885786 -0.057328478 -0.041896652 0.079468064 -0.03588591 0.02368521 0.074733205
-0.06205625 0.08393981 -0.009411208 -0.05266058 0.0866107 -0.08563899 -0.0060889423 0.055457808
-0.029285654 0.043869875 -0.046340205 -0.075579435 0.05466076 0.008731827 0.017784834 0.06918668
0.05987265 0.044832177 0.059139125 -0.030506626 -0.084091134 0.013566859 0.030697435 -0.020762973
-0.057980206 -0.015041575 0.028007753 0.005522646 -0.030332569 0.07841023 -0.008748688 -0.026614185
0.035274908 -0.020726606 -0.00056415796 -0.0014853626 -0.054394573 -0.021500446 0.054408647 0.007859699
0.00033123046 0.0064277127 -0.07842712 -0.067465924 -0.06612079 -0.07236296 -0.045798104 0.04072211
0.006799847 0.04004497 -0.024126448 0.08046413 -0.020207152 -0.011038378 0.06279022 0.03939163
-0.018785343 -0.0013096854 0.03401407 -0.043489825 -0.023589715 0.042481564 0.035138562 -0.036775265
0.046612836 0.064148866 0.073162265 -0.07799485 0.05915945 -0.08704502 -0.018963762 0.064077
0.013806224 -0.040024858 -0.07825006 0.07832161 0.030613087 0.044817887 -0.04119866 -0.052909087
0.06538028 -0.02236534 -0.06428304 0.06607439 0.011241227 -0.046782263 -0.02256088 -0.083809
-0.0048378855 0.022345826 -0.07927708 0.017804638 0.082350574 0.036748253 0.05379934 0.048294
-0.07109148 0.060676105 -0.0031094253 -0.039505325 -0.07655569 0.078087695 -0.021765403 -0.04386258
-0.04173185 -0.016780674 -0.0076580793 -0.08835488 0.009347834 -0.0211358 -0.017668508 -0.018586405
-0.056333035 0.03826975 -0.05555239 -0.0133598 0.08455189 0.024976179 -0.011277936 -0.041275777
-0.047699865 0.019520693 -0.071993575 -0.077852264 0.08036018 -0.0277871 -0.08361826 -0.045124564
0.050666668 0.024117097 0.034783386 -0.051603094 0.014959864 0.07651193 0.017529756 -0.08306253
0.062722735 0.00050806254 0.030489191 0.07575122 0.037172563 0.065535225 0.06638781 -0.08205956
-0.045265798 0.06877545 0.05757094 0.017260537 -0.04070162 -0.009384818 -0.00038396567 -0.08650742
-0.023293823 -0.009190954 -0.07617292 -0.041122533 0.03808438 0.061434455 -0.034635372 -0.006878458
-0.04977131 -0.07456634 -0.039072078 -0.023193203 -0.07343255 -0.012188919 -0.0033368468 0.05945959
-0.029674143 -0.017175853 0.08335475 -0.03913614 -0.01623135 0.05585312 0.067743875 -0.07209648
-0.024054073 -0.048640773 0.026518628 -0.0118729025 -0.018225476 -0.0053565726 0.0032773167 0.055729784
0.05255545 -0.033280604 -0.053860582 -0.017792106 0.0872053 0.05761581 0.07505841 -0.08042759
0.04728865 -0.011523612 0.07350064 -0.06606845 -0.002089642 0.034512475 -7.066876e-05 0.04030139
-0.085947886 0.0119755715 -0.064572364 0.074961744 -0.021793112 -0.05005624 0.045328073 -0.08176929
-0.047829255 0.01487942 -0.04633206 -0.019327499 -0.068911806 -0.03156386 0.044570632 -0.07959025
0.0819082 0.066537835 0.002843134 0.051910438 -0.053018354 0.046771698 0.08087865 -0.048004806
0.059460662 -0.07963408 0.04756268 0.00016405433 -0.076819435 0.026653036 -0.043212477 -0.05116016
-0.032382634 0.04443539 -0.029325966 0.08595709 -0.021482207 0.04023034 0.017719842 0.0644776

fc_net.conv_net.4.bias f4 [4]
00000000: acde 9cbc 7aa5 703d 7348 803d 321d 49bd
-0.019149147 0.05875156 0.062638186 -0.04910011

fc_net.conv_net.6.weight f4 [1, 4, 4, 4]
00000000: ac8c 453d fe9e f4bd ca24 e33d c0fc 18bc
00000010: 5a03 d1bd fc19 e13d d061 653c 60f0 bfbb
00000020: 3ec7 babd a0b9 24bc 2af9 8ebd aeff da3d
00000030: c43e d0bd c832 c6bc 6e1f b3bd 6c8f e6bd
00000040: 40e9 eebd 64e1 88bd a459 b23d dc51 27bd
00000050: de61 fd3d c8d1 383d b832 b6bc 6294 8cbd
00000060: b83b d5bc 826c f2bd 60cf 113d 046e 2d3d
00000070: 90f4 e43c 7a6f 8fbd 08f2 6fbd 60a5 bbbd
00000080: 6013 693c 0806 7a3d de41 b5bd 52e1 ca3d
00000090: b27c f73d 34b0 4b3d 0090 f938 94b1 43bd
000000a0: 60c4 e63b 7cc6 54bd 400b 4ebd 8867 0dbd
000000b0: 3064 283d 4075 4dbc 1c34 8a3d a08c e6bb
000000c0: 52cf eabd 4893 fabd 3007 1abd 0018 ce3a
000000d0: 7a86 b83d 7812 823c 28d0 e2bd 32a6 fe3d
000000e0: a449 8d3d 20c3 7ebc 3c8d 703d e085 2a3d
000000f0: 0497 cdbd 2c19 b5bd 340d 583d b4df 033d
0.04822986 -0.11944388 0.11091001 -0.009337604 -0.102057174 0.10991284 0.014000371 -0.0058575124
-0.09120034 -0.010054022 -0.06981118 0.10693298 -0.101682216 -0.024194136 -0.08746229 -0.11257824
-0.11665583 -0.06683615 0.08708504 -0.04084955 0.12372182 0.045121938 -0.022240981 -0.06864239
-0.026029453 -0.118371025 0.03559816 0.042341247 0.027948648 -0.07003684 -0.05858043 -0.09162402
0.014225811 0.061040908 -0.08850454 0.09906258 0.120843306 0.049728587 0.00011900067 -0.047776774
0.0070424527 -0.051947102 -0.050303698 -0.034522563 0.04111117 -0.012540162 0.0674822 -0.007035807
-0.114653245 -0.12235123 -0.03760451 0.0015723705 0.09010024 0.015877947 -0.11074859 0.12434043
0.068988115 -0.015549451 0.05872844 0.04163158 -0.100385696 -0.08842692 0.052746966 0.03219576

action_head.weight f4 [3, 64]
00000000: f48a 6cbd 5650 d1bd 6cb5 37bd 6ecf a0bd
00000010: f877 d7bc f296 d93d a6dc f1bd d411 e2bd
00000020: 6899 c6bd dcf9 0c3d 0482 56bd 6877 603d
00000030: 62bb bcbd bec1 89bd f6fb 8a3d 0039 83bb
00000040: 605b 4fbc 0082 373b 98dd 223d d0d4 0fbd
00000050: 7a6d b83d 0c97 643d c0da ed3d 3c5f d83d
00000060: 5446 eebd f02e 843d 58f6 b53d d299 c93d
00000070: 745b 863d 9210 953d e48d 4a3d 8028 9ebb
00000080: 8c7f 9fbd 52e5 ac3d bc91 d7bd 0c6f 6e3d
00000090: 605c 0a3c 1eea d9bd fa66 f5bd de04 dc3d
000000a0: 0040 b5b8 5082 ab3c c8b9 553d d016 8ebc
000000b0: acac 483d 3c23 c5bd 5ce4 583d b8d4 51bd
000000c0: 24bc 10bd 3840 e73c 0008 553a a0a3 67bc
000000d0: 0075 1dbb 2092 c93d 2026 423c 540e 79bd
000000e0: f0fd 81bd 0844 de3d 4445 ecbd b840 433d
000000f0: a8d2 dabc 683d d73c 9875 51bd 8e7f aabd
00000100: 4899 74bd 74be b7bd dcb4 26bd a071 e33b
00000110: b860 843d 8607 95bd 06c6 99bd f881 a3bd
00000120: 3cfd 7cbd e059 a73b 92af 83bd c062 f8bd
00000130: f0d3 603d a05e 783c 1c5f 4cbd 889d 5e3d
00000140: 1cbf 103d 3876 2e3d b42b 58bd 1e45 953d
00000150: c6ea df3d 6c97 70bd 0cb1 363d 80bf 29bb
00000160: 40e2 61bb 683f e5bd 600b e43b 2829 993d
00000170: 70a3 13bc ecf2 2abd 4626 e53d 4ee7 95bd
00000180: aa32 f23d 4e25 e9bd 902c bb3d c09b 303d
00000190: 6e4d 97bd 9ad2 c8bd 3c56 a93d e488 823d
000001a0: 3caa 94bd 46cf 81bd a62d e2bd 403c c53d
000001b0: d6d0 a33d d048 8abd 3c72 183d 5446 d5bd
000001c0: 54f2 3f3d 60b0 633c c051 b53c d86e 9fbd
000001d0: b0ec 073d 9692 dcbd 0812 8cbd d8cb 9cbc
000001e0: 68c4 f6bc dcea 5c3d a238 d8bd 2aec cb3d
000001f0: 5abf b8bd caec a73d 1893 4fbd 2019 fc3d
00000200: 0ae6 8b3d e618 b43d 8c03 993d 8075 a33a
00000210: 8489 103d 8a46 f23d 0042 0f3c e089 473c
00000220: 387b ffbc 82e1 ecbd ec3e edbd 6875 a53d
00000230: 7079 c63d 80cb e6bb 6031 f2bc 3c44 9e3d
00000240: 966c cabd 70e2 923c 0ef8 f03d 726b 80bd
00000250: 0e6f c53d 30d6 bebd 30fb 133d 74ae 77bd
00000260: a0f1 bd3c a0f0 603c c090 023c 5807 21bd
00000270: 328d e4bd 0cd2 213d 7a42 e73d 0054 ebbb
00000280: 74e3 0f3d e4e9 b43d 8899 2bbd de81 d7bd
00000290: 36d5 a13d c853 4ebd 3a0f 93bd ca47 973d
000002a0: d05d fc3c b6e4 a2bd 30c8 c03c c202 b33d
000002b0: f846 ca3c deb3 a73d 009a 8b3b 888b 7e3d
000002c0: e447 7dbd e017 0fbd bcd1 62bd 7c14 383d
000002d0: 8c06 a9bd dc8c 033d e40f 133d 9857 c33d
000002e0: 6ceb e2bd 500e aabc 7008 e03d 8219 903d
000002f0: f0a5 e1bc bc2f e83d 80e6 a8bc cad5 bcbd
-0.057749704 -0.10220401 -0.04485075 -0.07852064 -0.026302323 0.10624494 -0.118096635 -0.11038557
-0.09697229 0.034417972 -0.052370086 0.054801375 -0.09215428 -0.067264065 0.06786339 -0.0040045977
-0.012656063 0.002800107 0.03976211 -0.035115063 0.09005256 0.055808112 0.11613989 0.105650395
-0.11634508 0.06454265 0.08884877 0.09843792 0.06560412 0.07278551 0.049451724 -0.0048266053
-0.077879995 0.08442177 -0.105258435 0.05821137 0.0084448755 -0.106403574 -0.11982532 0.10743116
-8.6426735e-05 0.020936161 0.052179128 -0.017344862 0.048992798 -0.09625861 0.052952155 -0.051228255
-0.035335675 0.028228864 0.0008126497 -0.014138132 -0.0024026036 0.09842324 0.01184991 -0.06080468
-0.06347263 0.1085282 -0.11536649 0.047669142 -0.026711777 0.026274398 -0.051137537 -0.083251104
-0.059716493 -0.08971873 -0.040699825 0.0069410354 0.0646376 -0.072768256 -0.07508473 -0.07983774
-0.06176494 0.0051071495 -0.06429972 -0.1212821 0.05488962 0.015159279 -0.04989539 0.054349452
0.035338506 0.04259321 -0.052776054 0.07288574 0.10933451 -0.058738157 0.04460244 -0.0025901496
-0.003446713 -0.111937344 0.006959364 0.07478553 -0.0090111345 -0.041735575 0.11188941 -0.073195085
0.1182607 -0.113840684 0.09139359 0.043117285 -0.073878154 -0.09805794 0.08268401 0.06373766
-0.07259032 -0.063383624 -0.11043863 0.096306324 0.07998817 -0.06752169 0.037218317 -0.10413805
0.04686196 0.013897032 0.022133708 -0.07784814 0.033184707 -0.107701465 -0.06839377 -0.019140169
-0.03012295 0.053934917 -0.10557677 0.09957154 -0.090208724 0.08199461 -0.05067739 0.1230948
0.06830986 0.087938115 0.0747138 0.0012470931 0.035287395 0.118298605 0.008743763 0.012178868
-0.031186685 -0.1156645 -0.11584267 0.08079034 0.09691131 -0.007043302 -0.02956456 0.077278584
-0.098839924 0.01793024 0.11766063 -0.062704936 0.096403226 -0.09318197 0.036128223 -0.060469106
0.023186505 0.0137292445 0.007969081 -0.039313644 -0.11159743 0.039506957 0.11291976 -0.0071816444
0.035129026 0.088336736 -0.041894466 -0.10522817 0.07901995 -0.05037287 -0.071806386 0.073867396
0.030806452 -0.079537794 0.023532957 0.087407604 0.024692044 0.08188604 0.0042603016 0.062144786
-0.06183614 -0.03493488 -0.0553758 0.04494141 -0.08253202 0.032116756 0.035903826 0.095381916
-0.110800594 -0.020758778 0.10939109 0.07036115 -0.027544945 0.113372296 -0.020617723 -0.092204645

action_head.bias f4 [3]
00000000: 10c8 b13d 009f 8abd 148f 573d
0.08680737 -0.06768608 0.052626684

value_head.weight f4 [1, 64]
00000000: e83c 223d b0c8 c2bc bcd9 ccbd 6041 933b
00000010: 6a38 d9bd b856 463d 84c3 0e3d 4092 e6bb
00000020: d0c7 68bd 70dd b8bc 84c7 1abd f615 c9bd
00000030: 847f d5bd 74ef c93d c010 b2bb e0e2 d0bd
00000040: 36e0 e2bd 48ae 89bc 3cda 1dbd 28e2 b43d
00000050: 2414 913d cccb 6d3d e0bd e3bd d00b 283c
00000060: 0039 ae3b 9013 56bc aead e73d b8a5 cebc
00000070: 7cc4 493d e45b 7dbd a848 803c 0054 9eb9
00000080: a2ef ba3d 9419 93bd 3e6e edbd 80a5 ed3b
00000090: d03e 21bc 7c6f 2bbd e809 c7bd 2695 9fbd
000000a0: b6ea e0bd f0d0 e0bc cc6d 25bd 8417 8abd
000000b0: 4c49 8c3d 8462 063d 60dc 67bd c035 74bb
000000c0: aea1 9f3d 002e cf3a 882d 9cbc 065f 9c3d
000000d0: f0f8 663d 906d 6bbd c82a febc fcbe d5bd
000000e0: 62a5 8d3d 6689 e7bd e018 333d 0af7 d7bd
000000f0: 2843 0dbd dc26 f9bd 7898 f1bc 80f3 b33b
0.039608866 -0.023777336 -0.10002467 0.0044938773 -0.10606463 0.048422545 0.034854427 -0.0070364773
-0.05683118 -0.022566527 -0.03778793 -0.09818642 -0.10424712 0.09860125 -0.0054341257 -0.10199523
-0.11077921 -0.016806737 -0.038538203 0.088321984 0.0708392 0.058055684 -0.111202 0.010256723
0.0053168535 -0.0130661875 0.11312424 -0.025225505 0.049259648 -0.06185521 0.015659645 -0.00030198693
0.091277376 -0.07182613 -0.11593293 0.007252395 -0.009841636 -0.041854367 -0.09718686 -0.0779212
-0.109822676 -0.02744338 -0.040387914 -0.067427665 0.06849918 0.032808796 -0.05660665 -0.0037263483
0.0779451 0.0015806556 -0.01906468 0.07635312 0.05638975 -0.057477534 -0.031026259 -0.10436818
0.0691631 -0.113055035 0.043724895 -0.10545166 -0.034487873 -0.12165615 -0.029491648 0.005491674
