output/3x3Traffic-domain-DQN-test/best.pth (torch, 398495 bytes, 21 tensors)

enc_out_net.fc_net.0.weight f4 [48, 132]
0	0xbd9f57ee	-0.07780443
1	0xbda0756c	-0.078348964
2	0xbbb86940	-0.005627781
3	0x3d85efc6	0.06539874
4	0x3c1fe710	0.009759679
5	0x3d54c094	0.05194147
6	0x3da99cfa	0.08281894
7	0xbd338441	-0.0438273
8	0xbd7bc1df	-0.061464187
9	0xbc3ad648	-0.011403628
10	0x3d0dbb6e	0.034602575
11	0x3d8a6fd0	0.06759608
12	0xbd28641a	-0.04111109
13	0xbd26faac	-0.040766403
14	0xbd813c34	-0.06310311
15	0xbbdea0e0	-0.00679408
16	0x3d2def44	0.04246451
17	0xbda5c1f1	-0.08093632
18	0xbd7f1706	-0.062277816
19	0xbc868e78	-0.016425356
20	0x3bc24ce0	0.0059295744
21	0x3c75dcb0	0.015006229
22	0xbd7bc357	-0.061465587
23	0xbd1175e9	-0.03551284
24	0xbd214107	-0.039368656
25	0x3d285ab0	0.04110211
26	0x3d92c8fa	0.071672395
27	0xbd41a5d3	-0.047277283
28	0xbd9d33ae	-0.07675873
29	0xbd4c419f	-0.04986727
30	0xbb287520	-0.0025704578
31	0x3d378d70	0.04481262
32	0xbb1a0920	-0.0023503974
33	0xbd93dbcb	-0.072196566
34	0x3d5702b0	0.052492797
35	0x3d2fad1c	0.0428897
36	0xbccdbda8	-0.02511485
37	0xbc86ce2c	-0.016455732
38	0xbda82e42	-0.08211948
39	0xbc848bd8	-0.016179964
40	0xbcf2ee8c	-0.029654764
41	0xbd03e72f	-0.032202896
42	0x3bebbf70	0.007194452
43	0xbcd5f28e	-0.026116636
44	0xbd0ebf03	-0.03485013
45	0xbbefa1d0	-0.0073129907
46	0xbce2dc28	-0.02769287
47	0xbc923628	-0.01784809
48	0xbce6746c	-0.028131686
49	0xbcac2938	-0.021015748
50	0xbd6f0365	-0.058352847
51	0xbdb20375	-0.086920656
52	0x3c54b560	0.012982696
53	0xbd1e42ba	-0.038637854
54	0xbc632108	-0.013862856
55	0x3d397188	0.045274287
56	0xbd3f5ba1	-0.046718244
57	0xbd24be5f	-0.040220615
58	0xbbb29c90	-0.0054507926
59	0x3d846984	0.06465438
60	0xbc31da30	-0.010855243
61	0x3d5b4d78	0.053540677
62	0xbd856fd7	-0.065154724
63	0xbd075d0d	-0.033047725
64	0x3d18ad02	0.037274368
65	0x3d6b8f10	0.057509482
66	0xbd302090	-0.042999804
67	0x3d5054cc	0.05086212
68	0xbda39806	-0.079879805
69	0xbacf31c0	-0.0015807673
70	0xbd49687a	-0.049171902
71	0x3d770248	0.06030491
72	0x3d12e158	0.035859436
73	0x3d77ea3c	0.060526118
74	0xbc863ab0	-0.016385406
75	0x3b9aee00	0.004728079
76	0x3cc33858	0.023830578
77	0xbd145f92	-0.036223955
78	0x3d38f460	0.04515493
79	0xbd63bc67	-0.055599596
80	0xbdb15873	-0.086594485
81	0xbd9d1dde	-0.07671712
82	0xbd47edaf	-0.048810657
83	0x3ccc3fb4	0.02493272
84	0x3d1386dc	0.036017284
85	0xbd719718	-0.058981985
86	0xbce19042	-0.027534608
87	0xbc8bf778	-0.017085776
88	0x3d89d948	0.06730896
89	0x3d885c92	0.066582814
90	0x3c948100	0.018127918
91	0x3c70da00	0.014700413
92	0x3d585770	0.052817762
93	0xbd71ccaa	-0.059033073
94	0xbdab3c11	-0.08361066
95	0xbdb02459	-0.08600683
96	0xbd275eb7	-0.04086181
97	0x3d827c9a	0.06371422
98	0x3cd4c788	0.02597405
99	0xbcb72918	-0.022358462
100	0xbd962361	-0.07330967
101	0x3d70fae0	0.058833003
102	0xbd7f33c5	-0.06230523
103	0xbd3166ed	-0.04331105
104	0x3d864f84	0.06558135
105	0xbd151c2f	-0.03640383
106	0x3d5c92c0	0.05385089
107	0x3d6a7e78	0.057249516
108	0x3c1ba800	0.009500504
109	0x3b97a400	0.0046277046
110	0xbc8f9428	-0.017526701
111	0xbc867d00	-0.016417027
112	0x3d8c9eb8	0.06866211
113	0x3d212a1c	0.0393468
114	0x3d06a678	0.0328736
115	0x3d71dcdc	0.05904852
116	0x3d848bfc	0.064720124
117	0x3b8c0960	0.0042735785
118	0x3d90de54	0.07073656
119	0x3d435d80	0.04769659
120	0xbc0015c8	-0.007817693
121	0xbda5074c	-0.080580324
122	0xbc198fc0	-0.009372652
123	0xbc331458	-0.010930143
124	0xbd30e87d	-0.043190468
125	0x3d2a8024	0.04162611
126	0xbd8af230	-0.06784475
127	0x3d2a9ad4	0.04165156
128	0xbcee707c	-0.029106371
129	0xbd975eb0	-0.07391107
130	0x3ccaa034	0.024734594
131	0xbd57869f	-0.05261862
132	0x3cbf66a4	0.023364373
133	0xbd165f38	-0.0367119
134	0xbceb0c6c	-0.028692447
135	0x3d925fba	0.07147165
136	0x3d7df204	0.061998382
137	0xbd811658	-0.0630309
138	0x3c10b8e0	0.00883314
139	0xbd7e5e1a	-0.06210146
140	0x3d6351a0	0.055497766
141	0x3d819ac6	0.06328349
142	0xbda4c85a	-0.080460265
143	0xbcd8c5ac	-0.026461445
144	0xbd2a3ba0	-0.04156077
145	0x3da3d9a8	0.08000499
146	0xbda545bd	-0.08069942
147	0x3c4e2718	0.012582563
148	0xbd2b8063	-0.041870486
149	0xbd2f5a31	-0.042810623
150	0x3bf2ec60	0.007413432
151	0xbd18da9d	-0.03731786
152	0xbc9d875c	-0.019229583
153	0xbc145420	-0.00905326
154	0xbd547975	-0.051873643
155	0xbd9c4f4b	-0.076323114
156	0x3d03ed16	0.032208525
157	0xbd46747a	-0.048450924
158	0xbbd4b0f0	-0.006490819
159	0x3d3ed994	0.046594217
160	0xbcc7dd90	-0.024397641
161	0xbd669d30	-0.05630225
162	0xbd86afc1	-0.06576491
163	0xbcfb4dfe	-0.030676838
164	0x3d6f687c	0.058449253
165	0xbc99f4b4	-0.018793441
166	0x3d7dfd64	0.06200923
167	0xbd8a4a10	-0.067524076
168	0xbdb161db	-0.086612426
169	0xbca3bff4	-0.019988991
170	0xbb62a8c0	-0.0034585446
171	0xbd0e9204	-0.03480722
172	0x3d3de198	0.04635772
173	0xbb873dd0	-0.0041272417
174	0x3b7d0f80	0.0038613975
175	0x3d208ccc	0.039196774
176	0x3c286288	0.010277398
177	0xbcaf722c	-0.021416746
178	0x3c36bd68	0.011153556
179	0xbd829f62	-0.06378056
180	0xbcef7604	-0.029231079
181	0xbd819789	-0.06327731
182	0xbd32acd7	-0.043621864
183	0x3d161214	0.036638334
184	0xbd2072a3	-0.039171826
185	0x3da62c8e	0.08113967
186	0x3d7e4688	0.062078983
187	0xbd2dd204	-0.042436615
188	0xbd1ddac2	-0.0385387
189	0x3aa48940	0.0012553111
190	0xbd9f7273	-0.07785501
191	0xbd449280	-0.047991276
192	0xbc3a7750	-0.011380985
193	0x3d807c02	0.062736526
194	0x3dac5c7c	0.084160775
195	0xbd32f17c	-0.04368733
196	0x3da51a8e	0.080617055
197	0x3d8835c0	0.06650877
198	0xbd5a1ff5	-0.053253133
199	0x3cfeea64	0.031117626
200	0x3d9888bc	0.07447955
201	0xbc330158	-0.010925613
202	0x3d3059a8	0.043054253
203	0x3cf4c5e8	0.029879525
204	0x3c6b9ab0	0.014380142
205	0xbd01a013	-0.0316468
206	0x3d9603d6	0.073249504
207	0xbd5a01bc	-0.05322431
208	0x3d9ab2b4	0.07553616
209	0xbd926910	-0.07148945
210	0x3d4ecd80	0.05048895
211	0x3d9312a8	0.07181293
212	0x3ce336c4	0.027736075
213	0x3d325a8c	0.043543383
214	0x3c83f7bc	0.01610934
215	0xbd8630f1	-0.065523036
216	0x3d549c04	0.0519066
217	0x3c7abeb0	0.0153042525
218	0xbd964c32	-0.07338752
219	0x3d08f96e	0.033441
220	0x3b536700	0.0032257438
221	0x3d25a7fc	0.040443406
222	0xbd4c78c6	-0.049919866
223	0xbd870681	-0.065930374
224	0x3d7ed754	0.06221707
225	0x3d8e0e20	0.06936288
226	0x3c5f20a8	0.013618626
227	0x3db233d0	0.08701289
228	0xbc6a9da8	-0.014319815
229	0xbb3cc640	-0.002880469
230	0x3c4c0678	0.012452714
231	0xbc806d0c	-0.015676998
232	0x3cb1a8b4	0.02168689
233	0x3d9db04c	0.076996416
234	0x3d95670c	0.07295045
235	0x3c8aa69c	0.016925149
236	0xbdae51eb	-0.08511718
237	0xbd36500c	-0.044509932
238	0xbda03f99	-0.0782463
239	0x3b65a080	0.0035038292
240	0xbd7d7ccd	-0.061886597
241	0x3cf7b148	0.030235901
242	0xbd5712cb	-0.052508157
243	0x3d0f61f6	0.035005532
244	0xbc859dcc	-0.016310595
245	0x3d8879f6	0.06663887
246	0x3d9e3c80	0.07726383
247	0xbd8c159d	-0.0684006
248	0xbd8420ea	-0.0645159
249	0xbd637d0d	-0.05553918
250	0x3d8524d4	0.06501165
251	0xbd8d2af8	-0.06892961
252	0x3d353768	0.044242293
253	0x3cd8f290	0.02648285
254	0x3c8597e4	0.016307779
255	0x3da95926	0.08268957

enc_out_net.fc_net.0.bias f4 [48]
0	0x3d75ab1c	0.059977636
1	0xbd89bcb0	-0.067254424
2	0xbd3f7a1d	-0.046747316
3	0xbdad52e2	-0.08463074
4	0x3b395c20	0.002828367
5	0xbcc22124	-0.023697443
6	0x3c176b40	0.009241879
7	0xbd45b72b	-0.048270386
8	0x3cb64814	0.022251166
9	0xbc6b5350	-0.014363125
10	0xbd7b2b22	-0.06132043
11	0x3d8346f6	0.06410019
12	0xbd087bdb	-0.033321243
13	0x3cc04f84	0.023475416
14	0x3d42313c	0.047410235
15	0xbd9736d9	-0.07383508
16	0xbd71d78e	-0.05904346
17	0xbd5995bb	-0.05312131
18	0xbdabb1a4	-0.08383492
19	0x3c826a34	0.015919782
20	0x3d1dfbf0	0.038570344
21	0x3cd6d15c	0.026222877
22	0xbd00aade	-0.03141295
23	0xbd95c463	-0.073128484
24	0x3d0a5976	0.033776723
25	0x3d6f70e4	0.05845727
26	0xbd83256b	-0.06403621
27	0xbc3755e0	-0.011189908
28	0x3d2f24d4	0.04275973
29	0xbd0ed887	-0.034874465
30	0xbb496540	-0.0030730516
31	0xbc1272f0	-0.008938536
32	0xbd9418ea	-0.072313145
33	0x3d201b2c	0.039088413
34	0x3da3d936	0.08000414
35	0x3da18afe	0.07887839
36	0x3c91fcec	0.017820798
37	0xbd05c278	-0.032656163
38	0x3b40ec20	0.0029437616
39	0xbce086e0	-0.027408063
40	0xbca817b8	-0.020519122
41	0x3c609dd0	0.0137095
42	0xbd9f751a	-0.07786007
43	0x3d81e6c8	0.06342846
44	0x3d33b648	0.04387501
45	0x3d62f634	0.05541058
46	0x3d8ac548	0.0677591
47	0x3bf763a0	0.007549718

encoder_net.fc_net.0.weight f4 [128, 396]
0	0x3d33f4f3	0.043934774
1	0xbd01c02f	-0.03167742
2	0xbbd82689	-0.0065963906
3	0x3d0ecf62	0.034865744
4	0x3d45a3aa	0.048251785
5	0x3d2dd12a	0.042435803
6	0x3cb535f4	0.022120453
7	0xbc9590d6	-0.01825754
8	0x3ca81c81	0.020521404
9	0x3b3fae7e	0.0029248293
10	0x3af2c660	0.0018522255
11	0xbd03ddf2	-0.032194085
12	0x3cb4e965	0.022083947
13	0xbd1638b6	-0.036675178
14	0x3c7fb064	0.01560602
15	0x3d407d05	0.046994228
16	0x3ccd5282	0.025063757
17	0x3b97c853	0.004632035
18	0x3caf8fc1	0.021430852
19	0xbd2297f0	-0.03969568
20	0xbd3625e1	-0.044469718
21	0x3d026c96	0.031841837
22	0x3d355117	0.044266786
23	0xbb6ac4d2	-0.003582288
24	0xbc7520f9	-0.014961475
25	0xbc8e3b46	-0.017362248
26	0xbd42dc5e	-0.04757344
27	0xbc78c708	-0.0151841715
28	0x3cc21eca	0.023696322
29	0x3c07b840	0.008283675
30	0xbc94f65a	-0.018183876
31	0xbbc96940	-0.00614658
32	0xbb6f3320	-0.0036498979
33	0x3d15e692	0.036596842
34	0x3d3dd40c	0.0463448
35	0x3d4844f0	0.04889387
36	0xbd1e8969	-0.038705263
37	0x3c4655de	0.012105433
38	0x3ccd33e5	0.02504916
39	0x3c4664c1	0.012108983
40	0x3d0a4765	0.033759493
41	0xbb86f584	-0.004118623
42	0xbd10e448	-0.035373956
43	0xbcd21bad	-0.025647962
44	0x3bc6585b	0.0060530133
45	0xbd2b92ab	-0.04188792
46	0x3d4839e4	0.048883334
47	0xbd4470ad	-0.04795902
48	0x3d381c33	0.044948768
49	0xbcb07785	-0.021541366
50	0x3c261329	0.010136404
51	0x3cee265f	0.029071031
52	0xbce51c53	-0.027967608
53	0x3cc785e7	0.024355842
54	0xbce348d9	-0.027744697
55	0xbc0de22a	-0.008659879
56	0x3d3b4a88	0.045725375
57	0x3d18d00a	0.037307777
58	0x3d4122e9	0.047152434
59	0x3d46a779	0.048499558
60	0xbd08631d	-0.033297647
61	0x3c9a2972	0.01881859
62	0x3c916f42	0.017753247
63	0x3cf04d12	0.029333625
64	0xbc9160e6	-0.0177464
65	0xbd00b343	-0.031420957
66	0xbb980f33	-0.0046404838
67	0xbce6023c	-0.028077237
68	0x3bf10b5b	0.00735609
69	0xbd295c88	-0.04134801
70	0x3d37f5cb	0.04491214
71	0x3b9595b3	0.0045649647
72	0xbcaa7977	-0.020809872
73	0x3cfc1622	0.030772272
74	0xbc117532	-0.008878039
75	0x3d466fa5	0.048446316
76	0x3d1c97e9	0.03823081
77	0x3d005df8	0.031339616
78	0x3c1fa1da	0.009743178
79	0xbc97b79c	-0.018520169
80	0xbcf6101a	-0.030036975
81	0x3b2c8010	0.0026321448
82	0x3c7e3024	0.015514407
83	0xbba38515	-0.00499023
84	0x3d2a5006	0.041580223
85	0xbb8b6a98	-0.0042546503
86	0x3d147340	0.036242723
87	0xbd3da442	-0.046299227
88	0xbc880475	-0.016603688
89	0x3cf75bef	0.030195205
90	0x3d4a1b7b	0.049342614
91	0x3d1b0da9	0.037854824
92	0xbcbc1fde	-0.022964414
93	0xbd3bfb9e	-0.045894258
94	0x3c44fa5c	0.012022581
95	0xbd4caa7e	-0.04996728
96	0x3ce687aa	0.028140862
97	0x3d0b2261	0.033968333
98	0xbd0ca572	-0.03433747
99	0xbb828a4b	-0.003983771
100	0xbc4bdbef	-0.012442573
101	0x3d17aa28	0.037027508
102	0xbd072e57	-0.033003177
103	0x3d18bdd0	0.037290394
104	0x3d175d76	0.036954366
105	0xbc9905c8	-0.018679515
106	0xbd399a34	-0.045313075
107	0xbcd74052	-0.026275788
108	0xbbf11b65	-0.007358002
109	0xbc123694	-0.008924145
110	0xbd254e49	-0.04035786
111	0xbd0cd4bc	-0.034382567
112	0x3aaf90eb	0.0013394629
113	0xbd019b7a	-0.031642415
114	0xbd0dd924	-0.03463091
115	0xbcc03fe2	-0.023467962
116	0x3c86a255	0.016434828
117	0x3c1d35e6	0.00959537
118	0x3cc34fbe	0.023841735
119	0x3d3ec8e5	0.046578307
120	0xbd362c1b	-0.044475656
121	0xbcdcb2cc	-0.026940726
122	0xbc7420f3	-0.014900434
123	0x3d235a2a	0.03988091
124	0x3d07d8b9	0.033165667
125	0x3caf354e	0.021387722
126	0xbd490f7a	-0.049087025
127	0x3d30154d	0.042989064
128	0xbd49bdf6	-0.049253426
129	0xbd2d7f54	-0.042357758
130	0x3b8d1e88	0.004306618
131	0xbd0597a7	-0.03261533
132	0xbb80a2aa	-0.003925641
133	0xbd424467	-0.047428515
134	0x3ca95c74	0.020673968
135	0xbbea60e1	-0.007152662
136	0x3baca5c7	0.0052687856
137	0xbd135595	-0.03597029
138	0x3cc3825b	0.02386587
139	0xbd31ca86	-0.043406032
140	0x3bad1086	0.0052815108
141	0xbd15eaa2	-0.036600716
142	0x3cd9983e	0.026561853
143	0xbb9d336d	-0.00479739
144	0xbd373349	-0.044726644
145	0x3cbe8bb9	0.023259984
146	0xbc87049c	-0.01648169
147	0x38edf200	0.00011346117
148	0x3b52ae90	0.0032147504
149	0x3c8a2511	0.016863378
150	0xbacaa009	-0.0015459071
151	0x3bba0ef0	0.00567805
152	0xbd129d60	-0.035794616
153	0x3baae4c7	0.0052152607
154	0xbbe1fe2a	-0.006896754
155	0xbad65c25	-0.0016354366
156	0xbb993661	-0.004675672
157	0x3c96488a	0.018345136
158	0x3c14dfd0	0.009086564
159	0x3bfb24e0	0.007664308
160	0x3badd478	0.0053048693
161	0x3d2fe535	0.0429432
162	0x3cf35c06	0.029706966
163	0x3ca28cca	0.019842524
164	0x3d0288ad	0.031868625
165	0x3cba804b	0.022766253
166	0xbcfa5bad	-0.030561293
167	0x3c47225e	0.01215419
168	0xbc801d11	-0.01563886
169	0x3d137cf8	0.03600785
170	0x3d219254	0.03944619
171	0x3c559080	0.01303494
172	0xbd257392	-0.04039342
173	0x3d0a6e9a	0.033796884
174	0xbd308e82	-0.043104656
175	0x3c1f60d8	0.009727679
176	0xbd3dcf41	-0.04634023
177	0x3c63c2ae	0.013901396
178	0x3d18324c	0.03715734
179	0xbcbec820	-0.023288786
180	0x3d4b146d	0.049580026
181	0xbd331eeb	-0.043730658
182	0x3d0ee148	0.034882814
183	0x3d13ebd0	0.03611356
184	0xbd457f55	-0.048217136
185	0xbd2d6e27	-0.042341378
186	0xbd30cb3f	-0.04316258
187	0x3bd4c144	0.0064927656
188	0x3d3d1378	0.046161145
189	0x3d467020	0.048446774
190	0xbcec50ae	-0.028847065
191	0xbd1b107c	-0.037857518
192	0xbcd54788	-0.026035085
193	0xbc8b9d82	-0.017042879
194	0x3cf0cd72	0.029394839
195	0x3c64c5f4	0.013963211
196	0xbc714de4	-0.014728043
197	0x3d082c83	0.033245575
198	0x3b48570a	0.0030569457
199	0x3c2a5aba	0.010397607
200	0xbd2dde51	-0.042448346
201	0x3c7f7b9e	0.0155934375
202	0x3c75352e	0.014966292
203	0x3d160a3f	0.036630865
204	0x3d357267	0.044298556
205	0xbba26890	-0.0049563125
206	0xbd444a62	-0.0479225
207	0xbcbbd908	-0.022930637
208	0x3d1f7c75	0.03893705
209	0xbb58ec5b	-0.0033099863
210	0xbc583722	-0.013196738
211	0xbc060adb	-0.008181299
212	0xbcaf6e77	-0.021414978
213	0xbd313a94	-0.043268755
214	0xbc9cbd85	-0.019133339
215	0xbd0a466b	-0.033758562
216	0x3d028d7a	0.031873204
217	0x3d24c355	0.040225346
218	0x3c87918f	0.0165489
219	0xbd28ddce	-0.041227154
220	0xbca08496	-0.019594472
221	0xbd1ab039	-0.037765715
222	0x3ce1a64b	0.027545115
223	0xbcc94f6c	-0.024574004
224	0x3b67e110	0.003538195
225	0x3d0a7575	0.033803422
226	0xbd43dc19	-0.047817323
227	0x3caa71f6	0.020806294
228	0x3d3f4111	0.04669291
229	0xbd209d48	-0.039212495
230	0xbced6fdf	-0.028984008
231	0x3bc56c9d	0.0060249106
232	0x3d3a19c8	0.045434743
233	0x3c9f9991	0.019482406
234	0xbd4e3751	-0.050345723
235	0x3c846fa9	0.016166525
236	0x3ba05c73	0.0048938333
237	0x3d1007a8	0.03516355
238	0xbc96a01c	-0.018386893
239	0x3cba1841	0.022716643
240	0xbd1ba199	-0.03799591
241	0xbd3e60a8	-0.046478897
242	0xbceba2c2	-0.028764132
243	0x3cabc791	0.020969184
244	0x3cab2db5	0.020895818
245	0x3b6251b0	0.0034533553
246	0x3d3bad2d	0.04581945
247	0x3c6faf3c	0.0146291815
248	0x3c36363d	0.01112133
249	0x3d189305	0.037249584
250	0x3d4b5f73	0.049651574
251	0xbc9e32c2	-0.019311313
252	0xbc734797	-0.014848611
253	0x3c7b4512	0.015336292
254	0x3d06c83c	0.032905802
255	0x3d234056	0.039856277

encoder_net.fc_net.0.bias f4 [128]
0	0x3d336ffe	0.043807976
1	0x3c3dba96	0.01158013
2	0x3ce08a54	0.02740971
3	0xbbaa636f	-0.0051998417
4	0x3cf4a1f0	0.029862374
5	0x3bda780d	0.006667143
6	0x3d474397	0.048648443
7	0x3d24bbf8	0.040218323
8	0x3bd81ec5	0.006595465
9	0x3be6a293	0.0070384233
10	0xbd1082d4	-0.035281017
11	0x3d0fba3c	0.035089716
12	0xbd0616b4	-0.032736495
13	0xbd3cb8b3	-0.04607458
14	0x3c141aa6	0.009039557
15	0x3c16071b	0.0091569675
16	0x3a555a3e	0.00081387523
17	0xbb3be5ed	-0.0028670982
18	0x3bdd3cdb	0.0067516393
19	0xbd4ba3a3	-0.049716603
20	0xbd033fa4	-0.032043114
21	0x3cd04b58	0.025426552
22	0xbcc89ea9	-0.024489718
23	0x3c71b2b2	0.014752077
24	0x3c95ea07	0.01830007
25	0x3b8eaf88	0.004354421
26	0xbb9577b4	-0.004561389
27	0x3cb1229f	0.021622954
28	0x3c817481	0.015802624
29	0xbc9fc7f1	-0.01950452
30	0xbb8ac7c5	-0.00423524
31	0xbb2dc341	-0.0026514085
32	0x3c55643f	0.013024389
33	0x3d075df4	0.033048585
34	0xbb438e32	-0.0029839394
35	0x3d450a75	0.048105676
36	0x39131e49	0.00014030295
37	0xb9e38f8f	-0.00043403773
38	0x3d2fa8fd	0.04288577
39	0xbd323bc3	-0.043514024
40	0x3c3bea4f	0.011469438
41	0x3d2592be	0.040423147
42	0x3d3085d2	0.04309637
43	0xbcb65537	-0.02225743
44	0x3b494851	0.003071327
45	0xbcf1b437	-0.029504878
46	0x3c86132d	0.016366566
47	0x3cfd41c7	0.030915154
48	0xbc6616b6	-0.014043501
49	0xbd1549bc	-0.03644727
50	0x3d31acfd	0.043377865
51	0x3d24e472	0.040256925
52	0x3b6920d0	0.0035572536
53	0x3ba4ddbc	0.0050313156
54	0x3d3a748f	0.045521315
55	0x3d33cd81	0.043897156
56	0x3d166d87	0.036725547
57	0xbd05d21b	-0.032671075
58	0xbcd2964e	-0.025706436
59	0xbd1d5e51	-0.038420025
60	0xbd2bb008	-0.041915923
61	0xbd11af24	-0.035567418
62	0x3d0cdbb4	0.034389213
63	0x3ce5ae55	0.02803723
64	0xbb027fce	-0.0019912603
65	0x3bf80f68	0.007570196
66	0xbd047755	-0.032340366
67	0x3c8031e0	0.015648782
68	0x3d40bb33	0.047053527
69	0xbd3e355f	-0.046437617
70	0xbb88d326	-0.0041755615
71	0xbce4c84e	-0.027927544
72	0xbba9111d	-0.0051595108
73	0x3d0dafae	0.03459137
74	0x3d410e81	0.047132973
75	0x3cbd1b21	0.023084225
76	0x3d20db25	0.039271493
77	0xbd263249	-0.0405753
78	0xbd1b8869	-0.037971888
79	0x3d1f69cd	0.03891926
80	0x3d24cfac	0.040237114
81	0xbce1c6ba	-0.02756058
82	0x3d1e61a9	0.038667355
83	0x3d337d83	0.04382087
84	0x3d08330d	0.03325181
85	0x3d3f06c0	0.046637297
86	0x3c730fc5	0.014835303
87	0x3cc72e31	0.024314018
88	0xbcedf40b	-0.029047033
89	0x3c93f4e0	0.018061101
90	0x3d313836	0.043266498
91	0x3d3022d2	0.043001957
92	0x3d2e7906	0.042595886
93	0x3d48ec98	0.04905376
94	0x3bbc94ff	0.0057550664
95	0xbd337acc	-0.04381828
96	0xbae2f59d	-0.001731563
97	0xbccd350e	-0.025049713
98	0xbc8a85d5	-0.01690952
99	0xbc36fd55	-0.0111687975
100	0x3cdff689	0.027339237
101	0xbd1eb03e	-0.038742296
102	0xbd278691	-0.040899817
103	0x3a8229dc	0.0009930688
104	0x3d03a8f1	0.032143537
105	0x3d0a6c50	0.0337947
106	0xbcd32620	-0.025775015
107	0xbd1a67c6	-0.037696622
108	0x3d1c3c4c	0.03814344
109	0x3d278dde	0.04090678
110	0x3cbbfe0b	0.022948286
111	0xbd50c601	-0.05097008
112	0x3b2d8928	0.0026479457
113	0x3ced9f09	0.029006498
114	0x3b0cd5f1	0.0021489824
115	0xbd1aff12	-0.03784091
116	0xbc8c3314	-0.0171142
117	0xbd1bd8f0	-0.038048685
118	0xbc4d86fb	-0.012544389
119	0xbc9a97fc	-0.0188713
120	0xbcec1f30	-0.028823465
121	0xbcf0f3f2	-0.029413197
122	0x3c0f501a	0.008747125
123	0xbd0c6d3b	-0.034283858
124	0xbc7f95b2	-0.015599655
125	0x3cdad84c	0.026714467
126	0x3c23f61d	0.010007408
127	0xbc2d8cf9	-0.0105926925

encoder_net.fc_net.2.weight f4 [128, 128]
0	0x3d1b0f58	0.03785643
1	0xbc8f1689	-0.0174668
2	0xbd55cc8f	-0.052197035
3	0x3d7cd8b1	0.06173009
4	0x3d81e5e8	0.06342679
5	0xbd99b608	-0.07505423
6	0x3da6a77e	0.08137415
7	0x3da51da1	0.08062292
8	0x3cebf570	0.028803557
9	0x3d95da35	0.0731701
10	0x3d531412	0.051532812
11	0xbd2e3d4d	-0.04253893
12	0xbd8b4bfc	-0.06801602
13	0xbda3180b	-0.0796357
14	0x3ca4e7f7	0.02013014
15	0x3d71d197	0.05903777
16	0x3d3bafd0	0.045821965
17	0x3c6c5d40	0.014426529
18	0x3d9001f6	0.07031624
19	0xbd96f25e	-0.073704466
20	0x3c8b2feb	0.016990623
21	0x3d6db58e	0.058034472
22	0x3c349187	0.011021025
23	0x3da16512	0.07880606
24	0xbc2f68d5	-0.010706146
25	0xbab5767d	-0.0013844516
26	0xbca855ed	-0.020548785
27	0xbd0e1052	-0.034683533
28	0x3d4ff2c2	0.05076862
29	0xbda3beb2	-0.079953566
30	0x3d1ebb44	0.03875281
31	0xb9cae9d3	-0.00038702655
32	0xbdaf71a8	-0.085666
33	0xbd68d95d	-0.05684792
34	0xbdadb8c6	-0.08482508
35	0xbcbffa4c	-0.02343478
36	0x3d0e8788	0.03479722
37	0xbca1ff9c	-0.019775204
38	0xbd864f33	-0.06558075
39	0x3c3935f5	0.011304368
40	0xbc9a766a	-0.018855292
41	0xbd704af5	-0.058665235
42	0xbb96a9dc	-0.0045978855
43	0xbd5b5ff8	-0.05355832
44	0x3d3ba3d0	0.04581052
45	0xbd8a2ea6	-0.06747179
46	0xbc96d189	-0.018410461
47	0x3caab6cf	0.020839123
48	0xbd1f3dfd	-0.038877476
49	0xbc0191fc	-0.007908341
50	0x3c1700d8	0.00921651
51	0x3da602f4	0.08106032
52	0xbaf2b3bf	-0.0018516703
53	0xbd8efe98	-0.06982154
54	0xbbb75e65	-0.0055959695
55	0xbb260148	-0.0025330354
56	0x3da8b0b3	0.08236828
57	0x3d3b4e25	0.04572882
58	0xbd261928	-0.040551335
59	0x3db51cf6	0.088434145
60	0xbcb2cc18	-0.021825835
61	0xbd21d7a8	-0.039512306
62	0x3da79971	0.081835635
63	0x3c47836a	0.012177328
64	0xbca5d301	-0.020242216
65	0x3d8fc450	0.070198655
66	0xbc9bbd31	-0.019011112
67	0x3d3ae7fa	0.045631386
68	0xbcc3fc1f	-0.023923932
69	0xbd0f3ee8	-0.0349721
70	0xbbf04863	-0.007332848
71	0x3d978f84	0.0740042
72	0x3da0e2d9	0.07855768
73	0xbcbfed01	-0.023428442
74	0xbd566295	-0.05234011
75	0xbd8a1887	-0.067429595
76	0xbcba78a1	-0.022762598
77	0x3cba7040	0.022758603
78	0xbd7b4d6c	-0.061353132
79	0xbd79989d	-0.06093656
80	0x3cfaac88	0.030599847
81	0x3d6dc72c	0.058051273
82	0x3d680998	0.056649774
83	0x3c47a0e2	0.012184354
84	0x3d1a16c9	0.037619386
85	0xbc839444	-0.01606191
86	0xbc516ed6	-0.012782773
87	0x3d2ef45f	0.04271352
88	0xbdaf257d	-0.08552072
89	0xbc5dd9d0	-0.0135407
90	0x3d1c65a3	0.038182866
91	0x3d8a52f0	0.067541
92	0x3d7f5d81	0.06234503
93	0xbd773075	-0.060348947
94	0xbd6ce4f1	-0.057835523
95	0x3daa8aeb	0.08327278
96	0xbaf6023a	-0.0018768974
97	0x3d13ab1f	0.036051866
98	0x3ce2c0c3	0.027679807
99	0xbd1e699b	-0.038674932
100	0x3c1644dd	0.009171692
101	0x3a2489e6	0.0006276652
102	0xbd88cfc4	-0.06680253
103	0x3d90c2b7	0.07068389
104	0x3d84d123	0.06485202
105	0xbafff174	-0.0019526915
106	0x3d6d862b	0.05798928
107	0xbc99a275	-0.018754223
108	0x3d43ef37	0.047835555
109	0x3a7a5121	0.00095488323
110	0x3cca56b3	0.024699545
111	0x3da2a165	0.0794094
112	0x3d1ddd1c	0.038540944
113	0x3cff7219	0.031182336
114	0xbd803444	-0.06259969
115	0xbd909a32	-0.070606604
116	0xbcd6fa31	-0.026242347
117	0xbc90a74c	-0.017657898
118	0xbd990775	-0.074721254
119	0xbce9b348	-0.02852787
120	0x3caa4417	0.02078442
121	0x3da29c89	0.07940013
122	0x3dadb1d8	0.08481187
123	0x3c8184fc	0.015810482
124	0xbcc8bc29	-0.024503784
125	0x3d4f6292	0.050631113
126	0x3c99ee54	0.018790402
127	0xbd66dc3a	-0.05636237
128	0xbc2db6b4	-0.010602642
129	0xbc97599c	-0.018475346
130	0x3d881b6b	0.066458546
131	0xbdb32a1c	-0.08748266
132	0x3d5c9917	0.053856935
133	0x3da55c62	0.08074261
134	0x3d5cabf3	0.05387492
135	0x3d718176	0.058961354
136	0xbdab5780	-0.08366299
137	0xbd2a4173	-0.041566323
138	0x3d4093cd	0.047015954
139	0xbdaa933b	-0.08328863
140	0x3d307c04	0.04308702
141	0xbd88cb7c	-0.066794366
142	0xbc533720	-0.012891561
143	0xbd2a9f0e	-0.041655593
144	0x3da29933	0.07939377
145	0xbd9c4a39	-0.07631344
146	0xbcac024a	-0.020997185
147	0x3d0455d7	0.032308426
148	0xbd34c068	-0.044128805
149	0xba3d234a	-0.00072150363
150	0x3d73b206	0.05949595
151	0x3cd2c236	0.025727373
152	0x3d3aea97	0.04563388
153	0xbc99599b	-0.018719485
154	0x3da80299	0.082036205
155	0xbd637665	-0.05553283
156	0xbcee5241	-0.029091956
157	0x3d9f68f2	0.077836886
158	0x3d417171	0.047227327
159	0x3d88e62c	0.06684527
160	0x3d8a916a	0.06766017
161	0x3d257572	0.040395208
162	0xbca71fca	-0.0204009
163	0xbd4f5084	-0.050613895
164	0x3a4d96c3	0.00078425946
165	0x3da01d95	0.07818142
166	0xbd4e0ef4	-0.05030723
167	0x3cfde5e1	0.030993404
168	0x3da6bb4a	0.08141191
169	0xbc46202a	-0.012092629
170	0xbd59f255	-0.05320962
171	0xbd721b9b	-0.059108358
172	0x3cc7620f	0.02433875
173	0x3cc4bfb8	0.0240172
174	0xbc66cdc8	-0.014087148
175	0xbd00216b	-0.03128187
176	0xbc222ae6	-0.009897923
177	0x3db0dd4e	0.086359605
178	0xbd3b528c	-0.04573302
179	0x3d162efb	0.036665898
180	0xbd65e19d	-0.056123365
181	0xbb8c0c7e	-0.00427395
182	0xbd76279b	-0.060096364
183	0x3d7585ed	0.059942175
184	0x3cb2e0a6	0.021835636
185	0x3c8c7b3b	0.017148605
186	0xbc65a199	-0.014015579
187	0x3a13adb6	0.000563349
188	0x3d82991f	0.06376862
189	0x3db11a7b	0.08647629
190	0x3d4509ac	0.048104927
191	0xbd4fa330	-0.050692737
192	0xbd40ecd1	-0.047100846
193	0x3db2c238	0.087284505
194	0x3d473a3a	0.048639514
195	0xbcf3296d	-0.02968284
196	0x3d7e4e20	0.062086225
197	0xbdaa7609	-0.08323295
198	0xbbdbbdcc	-0.006705975
199	0xb8b22d0d	-8.496093e-05
200	0xbc527062	-0.012844177
201	0xbcce4be3	-0.02518267
202	0xbda53dc5	-0.08068422
203	0x3d83597f	0.064135544
204	0xbda1f3ed	-0.07907853
205	0x3d873a60	0.06602931
206	0xbc21b9de	-0.009870974
207	0x3d356222	0.04428304
208	0x3c9a6be8	0.018850282
209	0xbcc01197	-0.023445887
210	0xbc57fc35	-0.013182689
211	0xbda26aea	-0.079305485
212	0xbd6c1383	-0.057635795
213	0x3b507b61	0.003181182
214	0x3da0d4c9	0.078530855
215	0x3d37a200	0.04483223
216	0x3d589490	0.052876055
217	0xbcf4330e	-0.029809501
218	0xbdb2516b	-0.087069355
219	0x3d980775	0.07423297
220	0x3c0e6983	0.008692148
221	0xbc983c4e	-0.018583443
222	0x3d963db9	0.073359914
223	0xbb9f346e	-0.004858545
224	0x3ca51f11	0.020156415
225	0xbd3f2ea1	-0.04667533
226	0xbc591587	-0.013249761
227	0x3db03229	0.08603317
228	0xbcb8a29d	-0.022538478
229	0xbdb39129	-0.087679215
230	0x3d3f28c3	0.046669733
231	0xbda88122	-0.08227755
232	0xbd227d96	-0.03967055
233	0x3d8b613a	0.06805654
234	0x3cce41f4	0.025177933
235	0x3d92c893	0.07167163
236	0x3d46bdae	0.048520736
237	0xbd6d9071	-0.05799908
238	0xbd0768d4	-0.033058956
239	0x3d5a2b67	0.053264048
240	0x3d00e206	0.031465553
241	0xbda1408c	-0.078736395
242	0xbd980acb	-0.074239336
243	0x3d48e6fb	0.049048405
244	0xbd9ddc36	-0.077080175
245	0x3d46b13e	0.048508875
246	0xbd733a21	-0.059381608
247	0x3cb8d05f	0.022560297
248	0x3d265df2	0.040616937
249	0xbd5d902b	-0.054092567
250	0xbd8bb336	-0.06821291
251	0xbd56c58e	-0.052434497
252	0x3d56c3ca	0.052432813
253	0x3cee0747	0.029056204
254	0xbd923d9f	-0.071406595
255	0xbcf0427c	-0.029328577

encoder_net.fc_net.2.bias f4 [128]
0	0xbd8ba422	-0.06818415
1	0xbb9a1a2b	-0.0047028265
2	0xbd54e55e	-0.051976554
3	0xbc91a4ef	-0.017778842
4	0xbd5680d4	-0.052368954
5	0xbd6b742d	-0.05748384
6	0x3d0d4b93	0.0344959
7	0x3d01ef23	0.0317222
8	0xbd10396e	-0.03521102
9	0xbd775124	-0.060380116
10	0xbd0d3027	-0.03446975
11	0x3d114a7d	0.03547143
12	0x3d994b32	0.074850455
13	0xbd3e3bf0	-0.04644388
14	0x3d67940d	0.056537677
15	0xbc114c66	-0.008868312
16	0x3d91fa05	0.071277656
17	0x3db3cc13	0.087791584
18	0x3c1e085c	0.009645548
19	0xbd7e4ce9	-0.062085066
20	0x3d3d2b94	0.046184137
21	0x3d481113	0.04884441
22	0x3d3adb51	0.045619313
23	0xbca2491c	-0.019810252
24	0x3d796ca8	0.06089464
25	0x3d069164	0.0328535
26	0xbdac79ad	-0.08421645
27	0xbd3fb814	-0.04680641
28	0x3c4e9215	0.012608071
29	0xbcf72867	-0.030170633
30	0xbd1def35	-0.038558204
31	0xbdad878d	-0.0847312
32	0xbd9d2a49	-0.07674081
33	0xbd407861	-0.046989802
34	0x3d3334db	0.04375158
35	0xbd4c45e8	-0.049871355
36	0x3c70b7a6	0.014692223
37	0x3cef0433	0.029176807
38	0xbdad9625	-0.084759034
39	0xbd201307	-0.039080646
40	0xbd8b9438	-0.0681538
41	0x3d9c5cf4	0.07634917
42	0xbd89caa5	-0.067281045
43	0x3cc635b3	0.024195528
44	0x3d82a56d	0.06379209
45	0xbd1e62cf	-0.03866845
46	0x3a7f5d36	0.00097413675
47	0x3d65626b	0.05600206
48	0x3c062280	0.008186936
49	0x3c22095f	0.00988993
50	0x3d18d2b7	0.03731033
51	0x3da5378e	0.08067237
52	0xbd9f82cb	-0.07788619
53	0xbd35db98	-0.044398874
54	0xbd4db131	-0.05021781
55	0xbd5a8c0a	-0.053356208
56	0xbd54c206	-0.051942848
57	0xbda84758	-0.08216733
58	0xbce18f40	-0.027534127
59	0x3cfdd700	0.030986309
60	0xbdb34c78	-0.0875482
61	0xbd5869e6	-0.052835368
62	0x3cf0977e	0.029369112
63	0x3b459ba0	0.0030152574
64	0xbd108754	-0.03528531
65	0xbc8ab9dd	-0.01693433
66	0xbd061578	-0.032735318
67	0xbc7a8ef1	-0.015292869
68	0xbd066b52	-0.032817192
69	0x3da6c74d	0.08143482
70	0xbd39c83f	-0.045356985
71	0xbd00fd5b	-0.03149162
72	0x3d1db84b	0.038505834
73	0xbd92537f	-0.07144832
74	0x3c7604d2	0.015015798
75	0xbcd942fb	-0.026521197
76	0xbd8ac0d4	-0.0677506
77	0xbd991fe1	-0.074767835
78	0xbbf2fc50	-0.007415332
79	0xbcb2cbf3	-0.021825766
80	0xbc1a1e6c	-0.009406667
81	0x3daeed7d	0.08541391
82	0x3ce248f3	0.027622676
83	0xbd7ed1aa	-0.06221167
84	0xbcd88cd8	-0.026434347
85	0x3da7b839	0.081894346
86	0x3cf030b4	0.029320098
87	0x3d9ab830	0.07554662
88	0xbd63a871	-0.05558056
89	0xbd5315b1	-0.05153436
90	0xbd51de01	-0.05123711
91	0xbdb0c346	-0.086309955
92	0x3d230fe1	0.039810065
93	0x3bda4b0a	0.0066617774
94	0x3cd70fbc	0.02625262
95	0xbcf860fa	-0.03031968
96	0xbd945941	-0.07243586
97	0x3c1e39f4	0.009657372
98	0xbc4a915b	-0.012363757
99	0x3ce8fdcb	0.02844133
100	0x3c67c314	0.014145631
101	0xbda4824f	-0.08032667
102	0x3ba964e8	0.0051694997
103	0x3ce6d25d	0.02817648
104	0xbd7f8705	-0.062384624
105	0xbd591e2a	-0.053007282
106	0x3d243d97	0.0400978
107	0x3da4b965	0.08043174
108	0xbd9bdc5a	-0.07610388
109	0x3c545e65	0.012961959
110	0x3d12ca1d	0.03583728
111	0xbd708365	-0.058719058
112	0x3b92a670	0.0044754073
113	0x3da2422a	0.07922776
114	0x3d84ab56	0.06477992
115	0x3d9368a4	0.07197693
116	0xbb4f3a46	-0.0031620427
117	0xbcce1b4c	-0.0251595
118	0x3d6ee41e	0.05832302
119	0x3d9c1853	0.07621827
120	0xbd80ca84	-0.06288627
121	0xbd233767	-0.039847758
122	0xbd723e86	-0.05914166
123	0x3c9df7b8	0.01928316
124	0x3c6b3235	0.014355232
125	0xbd3ab3d9	-0.045581672
126	0x3d8b14f7	0.06791108
127	0xbdab1399	-0.08353347

encoder_net.fc_net.4.weight f4 [48, 128]
0	0x3d9f37f0	0.07774341
1	0x3d6c7b51	0.05773479
2	0x3d98963e	0.074505314
3	0x3d739911	0.059472147
4	0xbb80b61f	-0.0039279605
5	0xbd4c7486	-0.049915813
6	0x3c10edbf	0.008845746
7	0xbd9f5cee	-0.07781397
8	0x3d2117fa	0.039329506
9	0xbd91fd84	-0.071284324
10	0x3d81b0d3	0.06332555
11	0xbd200eb7	-0.039076533
12	0x3d385ec1	0.04501224
13	0xbd1dbf76	-0.03851267
14	0x3d8295ac	0.06376204
15	0x3cb3cb2c	0.021947466
16	0x3b02e9d3	0.0019975796
17	0xbd91b2d9	-0.071141906
18	0xbc1d62d7	-0.009606085
19	0x3c25f915	0.010130187
20	0xbba0d6f3	-0.0049084364
21	0xbcd05c27	-0.025434567
22	0x3d311bdb	0.043239456
23	0xbd79ae7c	-0.060957417
24	0xbc5a96f6	-0.013341656
25	0x3d828978	0.06373876
26	0x3cbc8276	0.023011427
27	0x3d9ad760	0.07560611
28	0x3d03798b	0.032098334
29	0x3d07507c	0.03303574
30	0x3d91fe48	0.071285784
31	0x3cbb295d	0.022846872
32	0x3d9acea5	0.075589456
33	0x3c1985b0	0.0093702525
34	0xbd0669e0	-0.032815814
35	0xbcd2984e	-0.02570739
36	0x3da1cc6b	0.07900318
37	0xbd86f1c8	-0.06589085
38	0x3d2a5a26	0.04158988
39	0x3d66cc88	0.0563474
40	0x3dac6ce7	0.08419209
41	0xbbe72cf6	-0.0070549203
42	0xbc659082	-0.014011504
43	0x3c849da4	0.01618845
44	0xbced9923	-0.029003685
45	0x3ceffdaa	0.029295761
46	0xbd98ff7d	-0.074706055
47	0xbd78d082	-0.060745724
48	0x3d6a67ff	0.057228085
49	0xbce4298c	-0.027851842
50	0x3d9feeab	0.07809194
51	0x3d6f737c	0.058459744
52	0xbc34a4a9	-0.011025586
53	0x3d96515b	0.07339736
54	0x3d392778	0.045203656
55	0xbda05a3d	-0.078297116
56	0xbcb91251	-0.022591742
57	0x3cc07575	0.023493508
58	0x3d9e6f69	0.077360936
59	0x3dae72eb	0.085180126
60	0x3c36c3eb	0.011155109
61	0x3dadfb75	0.08495227
62	0x3da0a974	0.078448206
63	0x3d956506	0.07294659
64	0x3c981290	0.018563539
65	0x3c17e798	0.009271525
66	0xbd2f1206	-0.042741798
67	0xbd456f51	-0.048201863
68	0xbd8d0f87	-0.06887727
69	0xbd502137	-0.050812926
70	0x3da66439	0.08124585
71	0xbd2acf18	-0.041701406
72	0xbc5045bd	-0.012711939
73	0xbd29f353	-0.041491818
74	0xbca367f8	-0.019947037
75	0xbd1c3c7c	-0.03814362
76	0x3d81a077	0.06329434
77	0x3ca44919	0.020054387
78	0xbce74dcf	-0.028235344
79	0xbd8fc7a3	-0.070204996
80	0x3c468744	0.012117211
81	0xbd481926	-0.04885211
82	0x3c9df825	0.019283364
83	0xbdb2c8a6	-0.08729677
84	0xbc8f6f18	-0.017509028
85	0x3bb92440	0.0056500733
86	0xbd74d5b8	-0.05977413
87	0xbb7d4aee	-0.0038649398
88	0x3d3d36bb	0.046194773
89	0x3d177c71	0.03698391
90	0xbb0aba9b	-0.0021168354
91	0x3af0b74e	0.0018365176
92	0xbc4d5ee4	-0.012534831
93	0xbdb63a23	-0.088978074
94	0x3daf0c0d	0.085472204
95	0xbd93b68e	-0.07212554
96	0xbd88af9d	-0.066741206
97	0xbd64f415	-0.055896837
98	0x3b0dd9fb	0.002164482
99	0xbcefa034	-0.029251195
100	0x3c052f02	0.008128883
101	0x3d25b0ad	0.040451694
102	0x3d6d0fb7	0.057876315
103	0x3cb74957	0.022373838
104	0xbd9ac0df	-0.075563185
105	0xbd6c5f9a	-0.05770836
106	0x3cb4a1e8	0.02204986
107	0x3d2f3110	0.0427714
108	0x3c889451	0.016672285
109	0xbca8456d	-0.020540917
110	0x3da6ec34	0.08150521
111	0xbd8d3eac	-0.06896719
112	0xbc2a5da8	-0.010398306
113	0xbc5b302b	-0.013378183
114	0x3daeea8b	0.08540829
115	0xbcf6ce12	-0.030127559
116	0xbd98916e	-0.074496135
117	0xbd8eb715	-0.06968514
118	0x3cc0664b	0.023486277
119	0xbd235103	-0.03987218
120	0xbd71c6ad	-0.059027363
121	0xbb261432	-0.0025341627
122	0x3d3b54ed	0.04573529
123	0x3d8e7d88	0.06957537
124	0x3d5d5fb0	0.054046333
125	0x3c90cf89	0.017677085
126	0xbd050753	-0.032477688
127	0x3d8da247	0.069157176
128	0x3d9321fc	0.071842164
129	0xbd39195b	-0.045190196
130	0xbc4888ff	-0.012239694
131	0xbdb0d306	-0.086339995
132	0x3d6eaef1	0.058272306
133	0x3caf1500	0.021372318
134	0xbd3ec58e	-0.04657512
135	0x3d730d38	0.05933878
136	0x3d937aee	0.07201181
137	0xbd92f562	-0.07175709
138	0xbd988acd	-0.07448349
139	0x3d257692	0.04039628
140	0xba0fb377	-0.00054817594
141	0xba5f9b0a	-0.00085298775
142	0xbdafdc01	-0.08586884
143	0xbd8e9cd1	-0.06963504
144	0x3dad4bdd	0.084617354
145	0x3c2bc94e	0.0104850065
146	0xbdaf773a	-0.085676625
147	0xbd53f85a	-0.05175052
148	0xbca0024a	-0.019532342
149	0x3d85dafc	0.065359086
150	0x3daf4d42	0.08559658
151	0x3db253da	0.087074
152	0x3c54c889	0.012987264
153	0x3d7345d2	0.059392758
154	0x3bed5f6d	0.0072440417
155	0xbd80636d	-0.06268964
156	0xbcb1f9fd	-0.021725649
157	0xba9bf026	-0.0011897131
158	0x3c8db6bd	0.01729905
159	0x3d20866c	0.039190695
160	0xbd761b65	-0.06008472
161	0x3cb4c77f	0.022067783
162	0x3d905a2d	0.0704845
163	0x3d913082	0.0708933
164	0xbce01eb0	-0.027358383
165	0x3d50e7fa	0.05100248
166	0x3c8b7f64	0.017028518
167	0x3cf1125a	0.029427696
168	0x3a34c1a3	0.0006895309
169	0x3d8b1e49	0.06792886
170	0xbd83348a	-0.064065054
171	0xbca4c32e	-0.0201126
172	0x3d1c3680	0.038137913
173	0x3b007519	0.0019601046
174	0xbdb27fe0	-0.087157965
175	0xbd192719	-0.037390802
176	0xbd9ccc0b	-0.076561056
177	0x3da1f0ba	0.07907243
178	0x3d9b1a84	0.07573417
179	0xbbe04d1f	-0.006845131
180	0xbd9158c4	-0.07097009
181	0x3cf2a101	0.029617788
182	0x3db11612	0.08646788
183	0x3d458b43	0.048228513
184	0x3cc6c39b	0.024263194
185	0x3c655c74	0.013999093
186	0xbcf58808	-0.029972091
187	0xbcaa7361	-0.02080697
188	0xbd4c0e43	-0.04981829
189	0xbd51dd57	-0.051236477
190	0x3d565837	0.052330222
191	0xbd8cf517	-0.06882685
192	0xbd86acbe	-0.06575917
193	0x3d96b2b7	0.07358306
194	0x3c1926d7	0.009347639
195	0xbc584084	-0.0131989755
196	0x3ca1e0d1	0.019760521
197	0x3bc19fc2	0.005908937
198	0x3d4d47e0	0.050117373
199	0xbd5c8f96	-0.05384787
200	0xbd848302	-0.064703
201	0x3d3421ee	0.04397767
202	0x3d6b5c7d	0.05746125
203	0x3c0236c3	0.0079476265
204	0xbd985309	-0.07437713
205	0x3c8bd4e9	0.017069297
206	0x3d3a0660	0.045416236
207	0xbda7dee6	-0.081968114
208	0xbb33631f	-0.0027372313
209	0xbcc4f1b9	-0.024041044
210	0x3d714704	0.058905616
211	0xbc85c0e4	-0.016327329
212	0xbd09e85d	-0.033668865
213	0xbcf4fd9e	-0.02990609
214	0xbd9ab3e5	-0.075538434
215	0xbdaa5b47	-0.08318191
216	0xba4e9f62	-0.0007882026
217	0x3d8a29f3	0.067462824
218	0x3d55c392	0.052188464
219	0x3c1b91e9	0.009495237
220	0x3d8297d5	0.06376616
221	0xbcb74459	-0.022371458
222	0xbd62c2a0	-0.05536139
223	0x3daf8b82	0.08571531
224	0xbd4992cc	-0.049212262
225	0xbd2c3f8d	-0.042052794
226	0x3c8436c1	0.01613939
227	0xbd4c0abd	-0.04981493
228	0x3d800300	0.06250572
229	0xbd22dac0	-0.039759398
230	0xbd98ef31	-0.07467497
231	0xbdaededb	-0.085386
232	0x3d5851e8	0.052812487
233	0x3c8ef016	0.017448466
234	0x3d56fc2d	0.052486587
235	0xbd2bcaf9	-0.041941617
236	0xbd8938de	-0.067003
237	0x3d86088d	0.065446
238	0x3d80b174	0.062838465
239	0xbc5f3d6b	-0.013625483
240	0x3db09a84	0.086232215
241	0xbdad914b	-0.08474978
242	0xbc58cc87	-0.013232357
243	0x3bd6a4c7	0.0065504047
244	0x3d4dec8e	0.050274424
245	0x3d45af3b	0.048262816
246	0x3b8a269c	0.0042160284
247	0x3d3e0339	0.046389792
248	0xbd9bcfa5	-0.076079644
249	0xbd5588cb	-0.05213241
250	0xbd0d65af	-0.0345208
251	0xbce63cf2	-0.028105233
252	0xbd3f37ca	-0.046684064
253	0x3d98c545	0.07459501
254	0xbc39008c	-0.011291634
255	0xbd300f60	-0.042983413

encoder_net.fc_net.4.bias f4 [48]
0	0x3d050ea5	0.03248467
1	0xbc86fde6	-0.01647849
2	0xbc04f84f	-0.008115842
3	0x3d26dd72	0.04073853
4	0x3d6652e3	0.05623139
5	0x3d67bd5b	0.056577068
6	0x3b7be26b	0.0038434516
7	0x3d3ba24d	0.04580908
8	0x3c75981d	0.01498988
9	0x3b9be241	0.004757196
10	0x3d479b9e	0.048732392
11	0x3ce5c7af	0.028049318
12	0x3d6bab8b	0.057536643
13	0x3c0f592b	0.008749287
14	0xbd0dac82	-0.034588344
15	0x3d496c16	0.049175344
16	0x3c5ff675	0.0136696
17	0x3cdac4b4	0.026705123
18	0xbd544b73	-0.051829766
19	0x3bdb1a03	0.0066864504
20	0xbc8818ae	-0.01661333
21	0xbcab3cf7	-0.020903094
22	0xbcaf20b7	-0.021377904
23	0x3c77c187	0.015121824
24	0x3d99f902	0.075181976
25	0xb9a6fa06	-0.0003184827
26	0x3bd7d55a	0.006586713
27	0xbd5f2db3	-0.05448694
28	0x3cf202ca	0.029542346
29	0xbc044937	-0.008074096
30	0xbc056e5b	-0.008143987
31	0x3cf6f556	0.030146282
32	0x3c86fecf	0.016478924
33	0x3d396cd7	0.045269813
34	0x3ce7f023	0.028312748
35	0xb9250e93	-0.00015741056
36	0xba597a21	-0.00082960917
37	0xbc2cce52	-0.0105472375
38	0xbd9974bf	-0.07492971
39	0x3d108421	0.035282258
40	0x3d90b864	0.0706642
41	0x3d161e55	0.03665002
42	0x3d45f7fc	0.0483322
43	0xbc2c246c	-0.0105067305
44	0x3b165fa6	0.0022945195
45	0xbcced219	-0.025246667
46	0xbd7739e0	-0.06035793
47	0xbca1221f	-0.01966959

fc_net.fc_net.0.weight f4 [64, 189]
0	0xbb4549ea	-0.003010387
1	0x3d78aef5	0.060713727
2	0xbd20c53b	-0.039250594
3	0xbc8106d7	-0.015750332
4	0x3c4a7833	0.012357759
5	0xbd6eaf3c	-0.058272585
6	0xbc845d9b	-0.016157916
7	0xbd861bda	-0.06548281
8	0xbd0b2686	-0.033972286
9	0x3c5a6b1b	0.0133312
10	0xbd14f160	-0.036363006
11	0x3cfdcaba	0.030980457
12	0x3d2e3e29	0.04253975
13	0xbcddf9a0	-0.02709657
14	0x3d63dc42	0.055629976
15	0xbd3dca73	-0.04633565
16	0x3d1aca88	0.037790805
17	0xbca92b96	-0.020650666
18	0xbd2aea45	-0.041727323
19	0xbcb24754	-0.021762528
20	0xbcc282ab	-0.023743948
21	0xbd80dd53	-0.06292214
22	0xbd8354d7	-0.06412666
23	0x3d34756b	0.04405729
24	0xbd1a475f	-0.03766572
25	0x3b7759c0	0.0037742704
26	0xbbc50580	-0.0060126185
27	0xbcd06f9e	-0.025443848
28	0x3d052018	0.03250131
29	0xbd86dd8d	-0.06585226
30	0x3d864329	0.065557785
31	0xbd0ee333	-0.034884643
32	0xbcb8a416	-0.02253918
33	0xbcafcf01	-0.021461012
34	0x3cea3b9a	0.028592873
35	0x3d827195	0.0636932
36	0xbd821cd0	-0.06353152
37	0xbd35237b	-0.04422329
38	0xbd0a0cc9	-0.0337036
39	0xbc3fe0ec	-0.01171134
40	0x3c186e28	0.009303607
41	0xbd0e19b4	-0.03469248
42	0x3cdc6606	0.026904117
43	0xbd0625ce	-0.032750897
44	0x3d1e387d	0.03862809
45	0x3d56b641	0.052419905
46	0x3d47f19f	0.048814412
47	0xbd2a1122	-0.041520245
48	0x3d2b58ac	0.04183261
49	0x3a9bed00	0.0011896193
50	0x3c0f0794	0.008729834
51	0x3d5cf7c3	0.05394722
52	0x3d91db21	0.07121874
53	0xbd3d0bd3	-0.046153855
54	0xbd813d5d	-0.06310532
55	0x3cb3de7d	0.021956677
56	0x3d844957	0.06459301
57	0xbb946859	-0.004529041
58	0x3cb44d88	0.022009626
59	0x3cd80a24	0.026372023
60	0x3d76ec5a	0.060283996
61	0x3d7e1952	0.062035866
62	0x3d3fc2f2	0.046816774
63	0x3d265020	0.040603757
64	0xbd671039	-0.056411956
65	0x3c9d4544	0.019198067
66	0x3d8760c4	0.066102535
67	0x3d4a5b64	0.049403563
68	0x3c89b258	0.016808674
69	0xbd5ebd14	-0.054379538
70	0x3cb54ca4	0.022131272
71	0x3d7f2006	0.0622864
72	0xbd5851b7	-0.052812304
73	0x3ceb18d8	0.02869837
74	0x3b9d8f7c	0.0048083644
75	0xbd841cfc	-0.06450841
76	0xbd5cbf5a	-0.053893425
77	0x3d729bfd	0.059230793
78	0x3d09e452	0.03366501
79	0xbcaf8a8c	-0.021428369
80	0xbc68253c	-0.014169034
81	0xbd4624d6	-0.048374973
82	0x3d3b8fd2	0.045791455
83	0xbd66ca45	-0.056345243
84	0x3d78cfcc	0.060745046
85	0x3c87a8e8	0.016560033
86	0xbd21cede	-0.039503925
87	0xbd8f8392	-0.07007517
88	0xbd553d27	-0.052060273
89	0x3cd14610	0.025546104
90	0x3c0801cf	0.008301212
91	0xbcc2bcf2	-0.023771737
92	0x3c67b928	0.014143266
93	0xbc8b0068	-0.016967967
94	0xbd63a8d8	-0.055580944
95	0xbd90a8f4	-0.07063475
96	0xbd78e124	-0.060761586
97	0xbc6650a8	-0.014057316
98	0xbd27bd89	-0.04095224
99	0x3d2a6724	0.04160227
100	0x3c05e602	0.008172514
101	0x3cc1e6f5	0.0236697
102	0xbcea4f49	-0.02860226
103	0xbd66e73f	-0.056372877
104	0xbcf8f32d	-0.030389393
105	0xbcabe7a7	-0.020984484
106	0xbbd994f0	-0.006640069
107	0x3aa0fac2	0.0012281763
108	0x3d191157	0.037370052
109	0x3d2fa852	0.042885132
110	0x3c3f672c	0.011682313
111	0xbcef5c1a	-0.029218722
112	0xbcd0feb6	-0.02551208
113	0x3d1bce88	0.03803876
114	0x3c900ae8	0.017583326
115	0xbd11a231	-0.03555507
116	0xbd0c0a47	-0.03418949
117	0x3d50c18c	0.05096583
118	0x3d7d9232	0.061907
119	0x3cdb3cd0	0.026762396
120	0x3d2907d9	0.04126725
121	0x3d08c32c	0.033389255
122	0x3d8f54aa	0.0699857
123	0x3d4923bf	0.049106356
124	0x3d84d3c1	0.06485701
125	0xb9af2800	-0.00033408403
126	0xbd58527e	-0.052813046
127	0x3d93d367	0.07218056
128	0x3d8741c5	0.066043414
129	0xbd6fe9d3	-0.0585726
130	0x3cf87980	0.030331373
131	0xbd6859ce	-0.05672627
132	0x3d632e13	0.05546386
133	0x3cb19b80	0.021680593
134	0x3d64d03a	0.055862643
135	0xbc8b3a31	-0.016995521
136	0xbd32703c	-0.043564066
137	0x3cab4ac4	0.020909674
138	0xbd847226	-0.064670846
139	0x3d7933d6	0.06084045
140	0x3d4d0906	0.050057434
141	0x3d74d91f	0.059777375
142	0x3c33d3e4	0.010975812
143	0x3d507e15	0.05090149
144	0xbd57f784	-0.052726284
145	0x3d80cea1	0.06289411
146	0xbd1415ad	-0.036153484
147	0x3d2e1df0	0.04250902
148	0xbd710bf9	-0.05884931
149	0xbd4acb8d	-0.049510527
150	0xbd029f88	-0.031890422
151	0xbb4282fd	-0.0029680126
152	0x3d416295	0.047213156
153	0x3cd33664	0.025782771
154	0x3d5786eb	0.052618902
155	0x3d45f59d	0.04832994
156	0xbd5aca36	-0.0534155
157	0xbd642513	-0.05569942
158	0x39f0782a	0.00045865896
159	0x3d1b1751	0.037864033
160	0x3d8ed20f	0.06973659
161	0x3c27d1df	0.010242908
162	0x3cb38eed	0.021918738
163	0x3c855b8e	0.016279008
164	0xbd2f4e33	-0.042799186
165	0xbcdf0c37	-0.027227504
166	0xba1b2e2e	-0.0005919662
167	0xbd56b631	-0.052419845
168	0x3d81b4b6	0.06333296
169	0xbbea4b7c	-0.0071501117
170	0x3d800e95	0.06252781
171	0x3d44a48d	0.04800849
172	0x3d637cc5	0.05553891
173	0xbd28bbd0	-0.041194737
174	0xbd21ba21	-0.039484147
175	0xbd891bd3	-0.0669476
176	0xbd88cbed	-0.06679521
177	0x3b505633	0.003178966
178	0xba093c1e	-0.00052350934
179	0xbd0dfaa2	-0.03466285
180	0xbd826aab	-0.063680016
181	0xbc85d718	-0.016337916
182	0xbd3bf542	-0.045888193
183	0xbc6eac2f	-0.014567419
184	0x3d8b0b1d	0.06789229
185	0x3d7cfded	0.0617656
186	0x3d89a8ef	0.06721675
187	0x3d111976	0.035424672
188	0xbcbdce23	-0.023169583
189	0xbd46403e	-0.04840111
190	0xbd45790f	-0.048211154
191	0xbc841a3c	-0.01612579
192	0xbccacf4c	-0.02475705
193	0xbd435432	-0.047687717
194	0xbd026936	-0.03183862
195	0xbd3a9f76	-0.04556223
196	0x3d892949	0.06697328
197	0xbd27e6d2	-0.04099161
198	0x3d8b7ec0	0.06811285
199	0x3d8e1b55	0.06938807
200	0xbd5a3709	-0.053275142
201	0xbcffdddd	-0.031233722
202	0x3d2da733	0.04239578
203	0xbd562976	-0.052285634
204	0xbd1b6698	-0.037939638
205	0xbd2bc236	-0.04193326
206	0xbcab64e3	-0.02092213
207	0xbd59bce2	-0.05315865
208	0xbc5d0cbc	-0.013491806
209	0xbd967a65	-0.07347564
210	0x3ccbfa0c	0.024899505
211	0x3d0316ce	0.03200417
212	0xbccca75c	-0.024982147
213	0x3d25ce5a	0.040479995
214	0x3d93a4df	0.07209181
215	0xbd22b7a4	-0.039725915
216	0x3d18d6d8	0.037314266
217	0x3c3c70b0	0.011501476
218	0xbd2f00e3	-0.042725455
219	0x3d4df722	0.050284512
220	0xbc6ac8a0	-0.014330059
221	0x3c90136c	0.017587386
222	0xbd111c57	-0.035427418
223	0xbd095e0c	-0.033536956
224	0xbb5c62a3	-0.0033628128
225	0x3cf6a6d4	0.030108847
226	0xbc324f79	-0.010883206
227	0xbd3a8751	-0.045539204
228	0x3d50c1f4	0.050966218
229	0xbca7707c	-0.020439379
230	0xbd0643a9	-0.03277937
231	0x3cba0750	0.022708565
232	0x3ccf63b0	0.02531609
233	0xbd6bc1e3	-0.05755795
234	0xbcec6e9e	-0.02886134
235	0xbc239242	-0.009983601
236	0x3d2e0766	0.042487524
237	0x3d89f935	0.067369856
238	0x3d510b3e	0.051036112
239	0xbd303018	-0.043014616
240	0xbd51499b	-0.051095586
241	0xbcbea3f0	-0.02327153
242	0x3c7760cd	0.015098763
243	0x3d47ccf2	0.048779435
244	0x3d8ff054	0.07028261
245	0x3d121950	0.03566867
246	0x3ca30594	0.01990012
247	0x3d4da83e	0.050209276
248	0xbd2b1532	-0.04176826
249	0xbd74aaaa	-0.05973307
250	0xbca78e38	-0.020453557
251	0xbc1f1c80	-0.009711385
252	0xbd8dcc80	-0.06923771
253	0xbd944728	-0.072401345
254	0xbb659020	-0.0035028532
255	0x3cd6da00	0.026226997

fc_net.fc_net.0.bias f4 [64]
0	0x3d1b0291	0.037844244
1	0x3caaa8ef	0.020832507
2	0xbc9d15d5	-0.01917545
3	0xbcbaf9a7	-0.022824122
4	0x3cf489f9	0.029850947
5	0xbd8c0f37	-0.068388395
6	0xbb8ca556	-0.0042921705
7	0x3c6e275a	0.014535749
8	0xbd0a2210	-0.03372389
9	0x3c78d087	0.015186436
10	0xbd42dcd0	-0.047573864
11	0x3bf49b23	0.007464783
12	0x3ce16c6f	0.027517525
13	0xbd9299be	-0.0715823
14	0x3b47a47c	0.003046303
15	0x3d4b8aef	0.049693044
16	0x3b1c51fb	0.0023852575
17	0x3d8c24fb	0.06842991
18	0xbcbfca1e	-0.023411807
19	0xbc860515	-0.016359845
20	0x3c1a9459	0.009434783
21	0xbd90fd01	-0.07079507
22	0x3b61bbf3	0.0034444302
23	0x3d7fbbd0	0.06243497
24	0xbd75ca2b	-0.060007256
25	0xbcc46258	-0.023972675
26	0xbd10be2e	-0.03533762
27	0xbd510b72	-0.051036306
28	0xbd5b61e9	-0.05356017
29	0x3c67d36f	0.014149531
30	0x3d8059fb	0.062671624
31	0x3d62628b	0.05526976
32	0xbc572c0a	-0.013133058
33	0x3d5c8669	0.05383912
34	0x3c4b0863	0.012392136
35	0xbd4488b3	-0.04798193
36	0x3d6586da	0.056036808
37	0x3d71e901	0.0590601
38	0xbd1a4f79	-0.037673447
39	0xbd2e2e9c	-0.04252492
40	0xbd8049df	-0.0626409
41	0x3d80f054	0.06295839
42	0xbd126c18	-0.035747617
43	0x3d93d572	0.07218446
44	0xbd86d5c8	-0.06583744
45	0xbd8da061	-0.069153555
46	0x3cce8647	0.025210513
47	0xbd54323a	-0.051805712
48	0x3d761308	0.060076743
49	0x3d294969	0.041329775
50	0x3d73bba1	0.05950511
51	0x3cf888a1	0.030338587
52	0x3be936d7	0.007117133
53	0x39e3c183	0.0004344099
54	0xbba1caae	-0.0049374914
55	0xbd46d2fa	-0.048541047
56	0x3d20fdc2	0.039304502
57	0xbd29dc95	-0.04147013
58	0xbd8a2d7f	-0.06746959
59	0xbcc0af7c	-0.023521177
60	0x3d11b53d	0.035573233
61	0xbc9adbe8	-0.018903688
62	0xbd6648f4	-0.056221917
63	0x3c6b6a96	0.014368674
