output/3x3Traffic-domain-QMIX-test/best.pth (torch, 61407 bytes, 13 tensors)

fc_net.fc_net.0.weight f4 [64, 132]
-0.07880443 -0.07934897 -0.006627781 0.064398736 0.008759679 0.05094147 0.08181894 -0.044827297
-0.062464185 -0.012403628 0.033602577 0.066596076 -0.042111088 -0.0417664 -0.06410311 -0.00779408
0.04146451 -0.08193632 -0.06327782 -0.017425356 0.0049295747 0.014006229 -0.062465586 -0.036512837
-0.040368654 0.04110211 0.071672395 -0.047277283 -0.07675873 -0.04986727 -0.0025704578 0.04481262
-0.0023503974 -0.07319657 0.0514928 0.0418897 -0.02611485 -0.017455732 -0.08311948 -0.017179964
-0.030654764 -0.033202894 0.0061944523 -0.027116636 -0.03585013 -0.008312991 -0.02869287 -0.01884809
-0.029131686 -0.022015749 -0.059352845 -0.08792066 0.011982696 -0.039637852 -0.014862856 0.04427429
-0.04771824 -0.041220613 -0.0054507926 0.06465438 -0.010855243 0.053540677 -0.065154724 -0.033047725
0.037274368 0.057509482 -0.043999802 0.04986212 -0.08087981 -0.002580767 -0.0501719 0.05930491
0.034859437 0.05952612 -0.017385406 0.0037280791 0.022830578 -0.037223954 0.04415493 -0.056599595
-0.08759449 -0.077717125 -0.049810655 0.02393272 0.035017285 -0.059981983 -0.028534608 -0.018085776
0.06630896 0.06558281 0.017127918 0.014700413 0.052817762 -0.059033073 -0.08361066 -0.08600683
-0.04086181 0.06371422 0.02597405 -0.023358462 -0.07430967 0.057833005 -0.06330523 -0.044311047
0.06458135 -0.03740383 0.054850888 0.056249518 0.008500504 0.0036277047 -0.018526701 -0.017417027
0.067662105 0.040346798 0.031873602 0.060048517 0.06372012 0.0032735788 0.069736555 0.046696592
-0.008817692 -0.081580326 -0.010372652 -0.0119301425 -0.043190468 0.04162611 -0.06784475 0.04165156
-0.029106371 -0.07391107 0.024734594 -0.05261862 0.024364373 -0.035711903 -0.027692446 0.07247165
0.062998384 -0.0620309 0.00983314 -0.061101463 0.056497764 0.06428349 -0.07946026 -0.025461445
-0.04056077 0.08100499 -0.07969942 0.013582562 -0.040870488 -0.041810624 0.008413432 -0.036317863
-0.018229583 -0.00805326 -0.050873645 -0.07532311 0.033208523 -0.048450924 -0.006490819 0.046594217
-0.024397641 -0.05630225 -0.06576491 -0.030676838 0.058449253 -0.017793441 0.06300923 -0.06652407
-0.08761242 -0.018988991 -0.0024585447 -0.03380722 0.04735772 -0.0031272417 0.0028614027 0.040196773
0.011277398 -0.020416746 0.012153557 -0.06278056 -0.028231079 -0.062277313 -0.042621866 0.037638333
-0.038171828 0.08213967 0.063078985 -0.041436616 -0.037538704 0.002255311 -0.07785501 -0.047991276
-0.011380985 0.062736526 0.084160775 -0.04368733 0.080617055 0.06650877 -0.052253135 0.032117624
0.07547955 -0.009925613 0.04405425 0.030879525 0.015380142 -0.0306468 0.074249506 -0.052224312
0.07653616 -0.07048945 0.051488947 0.07281293 0.028736075 0.04454338 0.01710934 -0.064523034
0.0529066 0.016304253 -0.07238752 0.034440998 0.0042257435 0.041443404 -0.048919868 -0.065930374
0.06221707 0.06936288 0.013618626 0.08701289 -0.014319815 -0.002880469 0.012452714 -0.014676998
0.02268689 0.07799642 0.073950455 0.017925149 -0.08411718 -0.043509934 -0.079246305 0.0045038285
-0.0608866 0.031235902 -0.05150816 0.03600553 -0.015310595 0.06563887 0.078263834 -0.0694006
-0.0635159 -0.056539178 0.06601165 -0.069929615 0.04524229 0.027482849 0.017307779 0.08368957
00000000: 3864 a1bd b681 a2bd db2d d9bb 7ce3 833d
00000010: c284 0f3c 01a8 503d b090 a73d d49c 37bd
00000020: 72da 7fbd 9638 4bbc dba2 093d 8663 883d
00000030: ad7c 2cbd 3f13 2bbd 7e48 83bd 7b65 ffbb
00000040: b1d6 293d 3bce a7bd cd97 81bd 9fbf 8ebc
00000050: 4588 a13b 627a 653c eadb 7fbd 7c8e 15bd
00000060: 9a59 25bd b05a 283d fac8 923d d3a5 41bd
00000070: ae33 9dbd 9f41 4cbd 2075 28bb 708d 373d
00000080: 2009 1abb 15e8 95bd 1dea 523d 8994 2b3d
00000090: cfee d5bc 53ff 8ebc 8c3a aabd ffbc 8cbc
000000a0: b31f fbbc c2ff 07bd d5fa ca3b b523 debc
000000b0: 96d7 12bd 3633 08bc 4f0d ebbc 4f67 9abc
000000c0: 93a5 eebc 5f5a b4bc f81b 73bd bf0f b4bd
000000d0: 1253 443c 4d5b 22bd 5683 73bc f558 353d
000000e0: 3474 43bd f2d6 28bd 909c b2bb 8469 843d
000000f0: 30da 31bc 784d 5b3d d76f 85bd 0d5d 07bd
00000100: 02ad 183d 108f 6b3d 2339 34bd 393c 4c3d
00000110: 50a4 a5bd 1622 29bb 0d81 4dbd b5e9 723d
00000120: c5c8 0e3d a9d1 733d d76b 8ebc ca52 743b
00000130: 3107 bb3c 2578 18bd cddb 343d fad4 67bd
00000140: bd64 b3bd 282a 9fbd 4206 4cbd 8d0e c43c
00000150: 496e 0f3d abaf 75bd 69c1 e9bc 9f28 94bc
00000160: fecc 873d 4850 863d d94f 8c3c 00da 703c
00000170: 7057 583d aacc 71bd 113c abbd 5924 b0bd
00000180: b75e 27bd 9a7c 823d 88c7 d43c 3f5a bfbc
00000190: ab2f 98bd 4de2 6c3d 2ca6 81bd 807f 35bd
000001a0: 3a43 843d c234 19bd 53ab 603d e565 663d
000001b0: b345 0b3c c9be 6d3b 4fc5 97bc 27ae 8ebc
000001c0: 6e92 8a3d af42 253d e58d 023d 6ff5 753d
000001d0: b27f 823d 8a89 563b 0ad2 8e3d ed44 3f3d
000001e0: 1578 10bc 9613 a7bd 0ef2 29bc a576 43bc
000001f0: 7de8 30bd 2480 2a3d 30f2 8abd d49a 2a3d
00000200: 7c70 eebc b05e 97bd 34a0 ca3c 9f86 57bd
00000210: cb97 c73c a546 12bd 45db e2bc 046c 943d
00000220: 4c05 813d 1d14 7ebd 2e1b 213c 8745 7abd
00000230: 336a 673d 10a7 833d 10bc a2bd 8594 d0bc
00000240: 0d23 26bd f2e5 a53d 7339 a3bd 6589 5e3c
00000250: d067 27bd 9e41 2bbd 7ed8 093c 0ac2 14bd
00000260: 3556 95bc d2f1 03bc e260 50bd 0143 9abd
00000270: a905 083d 7a74 46bd f0b0 d4bb 94d9 3e3d
00000280: 90dd c7bc 309d 66bd c1af 86bd fe4d fbbc
00000290: 7c68 6f3d 8dc3 91bc fc0a 813d c63d 88bd
000002a0: 246e b3bd cd8e 9bbc 891f 21bb 7179 0abd
000002b0: 2bfa 413d 69f2 4cbb 5f86 3b3b 5fa5 243d
000002c0: d6c4 383c 0541 a7bc b61f 473c 1893 80bd
000002d0: dd44 e7bc 7f16 7fbd 4494 2ebd a72a 1a3d
000002e0: 105a 1cbd d838 a83d 8e2f 813d 71b9 29bd
000002f0: 2fc2 19bd d7cd 133b 7372 9fbd 8092 44bd
00000300: 5077 3abc 027c 803d 7c5c ac3d 7cf1 32bd
00000310: 8e1a a53d c035 883d 6207 56bd c58d 033d
00000320: 0695 9a3d 0a9f 22bc 3b72 343d 0ff7 fc3c
00000330: fefc 7b3c ff0e fbbc 2010 983d 29e9 55bd
00000340: febe 9c3d c65c 90bd 13e6 523d f21e 953d
00000350: eb67 eb3c 1f73 363d e328 8c3c a724 84bd
00000360: 97b4 583d 7f90 853c e83f 94bd 0112 0d3d
00000370: 1b78 8a3b 8fc0 293d 3360 48bd 8106 87bd
00000380: 54d7 7e3d 200e 8e3d a820 5f3c d033 b23d
00000390: a89d 6abc 40c6 3cbb 7806 4c3c cb77 70bc
000003a0: dbd9 b93c 96bc 9f3d 5673 973d c3d7 923c
000003b0: a145 acbd 7937 32bd e34b a2bd da94 933b
000003c0: 3a64 79bd 6fe2 ff3c 38fa 52bd 897a 133d
000003d0: 4ad9 7abc ac6d 863d ca48 a03d e721 8ebd
000003e0: a014 82bd a095 67bd 1e31 873d 4237 8fbd
000003f0: fb4f 393d b623 e13c 0bc9 8d3c 7065 ab3d

fc_net.fc_net.0.bias f4 [64]
-0.0033441165 0.023446402 -0.041593418 0.051589523 0.075554535 0.0076737874 -0.0030244163 -0.06624885
0.047307033 0.05087777 -0.06989132 -0.002748979 -0.038291585 0.066538155 -0.076281145 -0.027203334
0.0670259 0.05780031 0.060418453 0.055613358 0.024014948 0.027899256 0.017187277 -0.014952285
0.0019934422 -0.0015925966 0.0037753528 0.08228028 -0.032913655 0.023729784 0.084857315 0.07223357
0.08488424 0.032560553 -0.085851215 0.07305181 -0.019343706 0.08087647 0.080118015 -0.062671416
0.01531521 0.084611356 -0.0023523623 -0.072332785 0.057151813 -0.038064312 0.07244934 0.022950174
0.016672825 0.019175963 0.006253337 0.022890003 0.063198775 -0.05181122 0.08183722 -0.08074964
-0.052306272 0.0369916 -0.012519216 -0.005388958 -0.033051383 0.012834477 0.023597429 0.055223826
00000000: f728 5bbb ab12 c03c dc5d 2abd 894f 533d
00000010: 56bc 9a3d 6574 fb3b 4935 46bb 7aad 87bd
00000020: 05c5 413d 3565 503d 2e23 8fbd 3728 34bb
00000030: a3d7 1cbd 2845 883d 4a39 9cbd 87d9 debc
00000040: e044 893d 05c0 6c3d 5779 773d d5ca 633d
00000050: ffba c43c fb8c e43c 55cc 8c3c 6efa 74bc
00000060: 69a4 023b adbe d0ba e96b 773b 9082 a83d
00000070: 78d0 06bd f764 c23c acc9 ad3d 32ef 933d
00000080: cad7 ad3d 375e 053d c3d2 afbd 309c 953d
00000090: b176 9ebc 90a2 a53d ea14 a43d df59 80bd
000000a0: a6ec 7a3c b848 ad3d 172a 1abb 3623 94bd
000000b0: 0518 6a3d 53e9 1bbd 5260 943d 0102 bc3c
000000c0: 7395 883c e916 9d3c cbe8 cc3b d183 bb3c
000000d0: 5c6e 813d 0038 54bd 469a a73d 1160 a5bd
000000e0: 1a3f 56bd 8184 173d 661d 4dbc db95 b0bb
000000f0: e360 07bd b347 523c 654f c13c 6132 623d

fc_net.fc_net.2.weight f4 [64, 64]
-0.048588406 0.028732808 0.11297904 0.0055911713 0.11777057 -0.0992454 -0.010207804 -0.09877932
0.058677036 -0.016951067 -0.03909486 -0.10572469 -0.10382733 0.07224572 0.1007071 -0.12090914
-0.0303697 -0.1020975 0.093406126 -0.06364912 0.009891925 0.0711692 0.1008255 0.003098043
0.008273092 -0.03529058 0.109020114 -0.046839852 0.028605582 -0.006961686 -0.092816904 -0.03731622
-0.09829654 0.11349185 -0.12213212 -0.0780859 0.052506793 -0.056819703 0.12441924 0.07384558
0.0890082 0.10267982 -0.09777336 -0.021377651 0.054911006 0.11119023 -0.060864303 0.07996127
0.12586534 -0.061191063 -0.06335208 -0.038044464 -0.0011107199 -0.017228829 0.018720029 -0.035210047
0.11393018 0.081974715 0.105610505 0.060811702 0.11717397 -0.049705412 -0.10318503 -0.06462628
0.07407723 -0.0027399936 -0.047744807 -0.11888656 0.12089716 -0.03796706 0.043320816 -0.006319789
-0.117524415 0.04546206 0.08591324 0.08536866 0.011522891 -0.10238081 0.034868557 0.10635644
-0.05894721 0.040501248 0.049215864 0.04160114 0.022315843 0.10649584 -0.04941533 -0.09606473
-0.07962899 -0.11722231 -0.08543196 0.041074406 0.08721195 -0.004037691 0.109972686 0.063822314
0.10057311 0.016608106 0.10922302 0.11205837 0.08199689 0.081998914 -0.08850892 0.098416924
-0.031579714 0.105720356 -0.021793084 -0.003518475 -0.0011776963 -0.04928058 0.088370055 -0.02356373
0.018959908 -0.094852954 0.07932457 0.073992535 -0.10844909 0.08607812 -0.06183878 -0.07382712
-0.0056816614 -0.08208893 -0.026598675 -0.044497024 -0.107080325 -0.03929245 0.11771995 0.036791306
-0.11762515 -0.116208404 0.014190944 -0.08932026 -0.1106523 0.044849794 0.070036784 -0.103018895
-0.11972655 0.0055721574 0.10207869 0.062167834 -0.07462154 -0.10939674 0.054771144 -0.10032152
0.08963975 -0.11897236 0.049296986 -0.02120003 0.110131055 -0.056596074 0.009009736 0.11962995
0.045387592 0.041489843 -0.06855558 -0.042303342 0.047552455 -0.08145636 -0.05615047 0.08815883
-0.12094098 -0.09370911 -0.11781499 -0.046606164 0.048979912 0.043574993 0.04077133 -0.09710024
-0.020000337 -0.07312219 0.03648041 -0.10840765 -0.03054188 -0.095985726 0.09831612 -0.053336296
-0.075418904 -0.10842306 0.10618769 -0.013283877 0.045239713 0.123320386 -0.014072524 -0.07256432
-0.02798873 0.00295156 -0.030546395 -0.027067704 0.11247167 0.04589649 0.037526052 -0.07391608
-0.012109015 -0.07773748 0.010661277 0.040902156 -0.077968806 0.08201411 0.06686193 -0.10448
-0.07697208 -0.07757652 0.017086687 0.02623768 -0.1176943 0.083415136 0.10112466 0.05220041
0.050432067 -0.034878146 0.042073186 -0.077021316 -0.08448528 -0.10238719 -0.06965515 -0.05094609
0.09161307 0.052027967 -0.052119378 0.038220737 0.07510717 -0.04208051 0.08581807 0.020690354
-0.009496557 -0.1161724 0.017041804 -0.017702358 0.033422004 0.043272976 -0.081293434 0.01183085
0.05115426 -0.09948908 -0.004786926 0.07027255 0.03680939 0.041788664 -0.058215465 -0.054485623
-0.08573416 -0.07278505 -0.0042329705 0.09724068 0.025983771 0.0011772789 -0.05692636 -0.033273887
-0.03011757 0.055836577 -0.10538523 -0.023492722 0.11005515 -0.10645151 0.0056519634 -0.111648664
00000000: a304 47bd 1161 eb3c 8e61 e73d 2536 b73b
00000010: b231 f13d 2c41 cbbd a23e 27bc d04c cabd
00000020: 5557 703d f7dc 8abc ef21 20bd 3086 d8bd
00000030: 6ca3 d4bd 90f5 933d 863f ce3d 369f f7bd
00000040: e1c9 f8bc 7e18 d1bd b64b bf3d 785a 82bd
00000050: be11 223c 28c1 913d 9a7d ce3d 8908 4b3b
00000060: dd8b 073c db8c 10bd f045 df3d 25db 3fbd
00000070: 4156 ea3c db1e e4bb ca16 bebd e5d8 18bd
00000080: b24f c9bd 6a6e e83d 6820 fabd 80eb 9fbd
00000090: 5d11 573d c7bb 68bd 84cf fe3d 5a3c 973d
000000a0: ee49 b63d cc49 d23d 663d c8bd 2f20 afbc
000000b0: 5dea 603d b4b7 e33d d94c 79bd bcc2 a33d
000000c0: d8e2 003e 7ba3 7abd bcbe 81bd 83d4 1bbd
000000d0: 9395 91ba 7923 8dbc bf5a 993c 6938 10bd
000000e0: 3a54 e93d 5ce2 a73d 524a d83d b115 793d
000000f0: e8f8 ef3d e797 4bbd ac52 d3bd c85a 84bd
00000100: ceb5 973d 7791 33bb 0f90 43bd cc7a f3bd
00000110: ee98 f73d 5983 1bbd 2b71 313d 3c16 cfbb
00000120: a4b0 f0bd 6d36 3a3d 48f3 af3d c4d5 ae3d
00000130: 82ca 3c3c 08ad d1bd 55d2 0e3d 68d1 d93d
00000140: a172 71bd a3e4 253d 9396 493d f565 2a3d
00000150: b7cf b63c 7e1a da3d bb67 4abd 96bd c4bd
00000160: 8614 a3bd 4012 f0bd f4f6 aebd a33d 283d
00000170: 2e9c b23d 9b4e 84bb 5c39 e13d 46b5 823d
00000180: 46f9 cd3d b90d 883c 52b0 df3d dc7e e53d
00000190: fced a73d 0cef a73d 2a44 b5bd d08e c93d
000001a0: bb59 01bd ea83 d83d 6987 b2bc 3796 66bb
000001b0: ee5c 9aba 6fda 49bd 5cfb b43d b908 c1bc
000001c0: cf51 9b3c 4442 c2bd ec74 a23d 6689 973d
000001d0: 8e1a debd ba49 b03d a94a 7dbd ac32 97bd
000001e0: 3b2d babb 3e1e a8bd 77e5 d9bc 8342 36bd
000001f0: ee4c dbbd 1ff1 20bd 2817 f13d 7bb2 163d
00000200: 74e5 f0bd acfe edbd 2281 683c 8aed b6bd
00000210: ac9d e2bd 6bb4 373d 726f 8f3d 92fb d2bd
00000220: 3233 f5bd a596 b63b a20e d13d b3a3 7e3d
00000230: 2ed3 98bd 660b e0bd b557 603d 5e75 cdbd
00000240: 0c95 b73d c8a7 f3bd a3eb 493d afab adbc
00000250: 648c e13d 49d1 67bd 929d 133c 8c00 f53d
00000260: 57e8 393d 41f1 293d de66 8cbd 4546 2dbd
00000270: 5dc6 423d 98d2 a6bd 09fe 65bd 9e8c b43d
00000280: e8af f7bd 90ea bfbd fc48 f1bd 1be6 3ebd
00000290: 299f 483d b17b 323d d7ff 263d 7edc c6bd
000002a0: bfd7 a3bc 16c1 95bd 7b6c 153d d404 debd
000002b0: f732 fabc 2a94 c4bd f659 c93d 2977 5abd
000002c0: 3a75 9abd e90c debd ee78 d93d 9ea4 59bc
000002d0: 474d 393d 668f fc3d 7290 66bc 9a9c 94bd
000002e0: 9f48 e5bc f66e 413b 6f3c fabc 17bd ddbc
000002f0: 8c57 e63d f5fd 3b3d ebb4 193d 5061 97bd
00000300: e464 46bc d434 9fbd a3ac 2e3c 0589 273d
00000310: 1cae 9fbd 04f7 a73d e8ee 883d 9cf9 d5bd
00000320: 8aa3 9dbd 70e0 9ebd 61f9 8b3c 67f0 d63c
00000330: b609 f1bd 8ed5 aa3d 721a cf3d 19d0 553d
00000340: db91 4e3d 63dc 0ebd ef54 2c3d 5abd 9dbd
00000350: 9e06 adbd 60b0 d1bd 5ca7 8ebd d9ac 50bd
00000360: a29f bb3d 471b 553d 217b 55bd 598d 1c3d
00000370: cad1 993d 9d5c 2cbd 62c1 af3d d17e a93c
00000380: 7297 1bbc cceb edbd 419b 8b3c 8904 91bc
00000390: 83e5 083d 013f 313d 2c7d a6bd 2ed6 413c
000003a0: 2187 513d eec0 cbbd a5db 9cbb 0eeb 8f3d
000003b0: 71c5 163d 972a 2b3d 5773 6ebd 512c 5fbd
000003c0: 6495 afbd 5410 95bd bbb4 8abb 1f26 c73d
000003d0: ebdb d43c ed4e 9a3a 9d2b 69bd 334a 08bd
000003e0: 1fb9 f6bc e5b4 643d 36d4 d7bd cf73 c0bc
000003f0: 9864 e13d 4003 dabd 1b34 b93b 0ea8 e4bd

fc_net.fc_net.2.bias f4 [64]
-0.016713696 0.107833415 0.00095726346 0.08760321 -0.0035458333 -0.12331693 0.036454078 0.110853255
0.10689597 -0.0032157728 0.103581876 0.12226492 0.062159847 0.020316126 0.052921105 -0.0028592667
0.05435771 -0.12171355 -0.007862525 -0.017020566 -0.08843663 0.008243101 0.108873874 -0.07396467
0.06291962 -0.11159243 -0.05638052 -0.10688415 0.09499763 -0.079139814 -0.031622995 0.001217989
0.10378498 -0.027793469 -0.02793516 -0.112192735 -0.039270688 -0.025723116 0.04914314 -0.042530123
-0.10443777 0.048165906 0.10799149 0.054245498 0.037364338 0.083079025 -0.079195455 0.039038178
0.076950654 -0.03126314 -0.108478144 -0.07771522 -0.08768651 -0.11406952 0.013240961 0.0038750896
-0.12487653 0.04062559 0.05740164 -0.08235459 -0.104059756 -0.03487118 0.053922217 -0.042912062
00000000: 29eb 88bc c4d7 dc3d ddf0 7a3a 5069 b33d
00000010: 3661 68bb 968d fcbd df50 153d 0807 e33d
00000020: 46ec da3d b7bf 52bb bc22 d43d 0866 fa3d
00000030: 539b 7e3d 016e a63c cdc3 583d 8962 3bbb
00000040: 31a6 5e3d f444 f9bd d2d1 00bc b76e 8bbc
00000050: 441e b5bd 120e 073c 44f9 de3d ca7a 97bd
00000060: 00dc 803d 928a e4bd 43ef 66bd 14e6 dabd
00000070: 1e8e c23d 0e14 a2bd 1d87 01bd eea4 9f3a
00000080: 388d d43d 21af e3bc 47d8 e4bc 4ec5 e5bd
00000090: 4dda 20bd 49b9 d2bc 514a 493d 1134 2ebd
000000a0: 78e3 d5bd 9d49 453d a42a dd3d 8730 5e3d
000000b0: 590b 193d 5625 aa3d 3a31 a2bd 7fe6 1f3d
000000c0: 4e98 9d3d c70d 00bd ca29 debd 2829 9fbd
000000d0: fc94 b3bd 489d e9bd 9ef0 583c 37f5 7d3b
000000e0: 44bf ffbd 0567 263d fb1d 6b3d 86a9 a8bd
000000f0: 481d d5bd 15d5 0ebd 8bdd 5c3d 8fc4 2fbd

fc_net.conv_net.0.weight f4 [4, 1, 4, 4]
0.123586744 0.043503612 0.16175357 0.15406597 -0.1746107 -0.19376525 0.12799275 0.029147565
0.2377002 -0.010532677 0.08213249 -0.04832375 -0.009112477 -0.11459994 -0.09821826 0.09812859
-0.15514284 0.11996174 0.24339777 0.24219799 -0.09736681 0.18424481 -0.17472193 0.2385059
0.18766966 -0.04691246 -0.039830625 -0.015552491 0.0685505 -0.112517506 -0.1742051 0.11963135
0.21677092 0.12766138 -0.24764055 -0.14622775 -0.15633583 -0.06324938 -0.23395202 -0.06906426
-0.14680952 -0.2389417 0.17988467 -0.14362812 -0.22654745 0.21198991 -0.01198715 0.0038942993
0.21962243 -0.12959945 -0.13918033 -0.03346157 0.07841316 0.07823858 0.0005567074 -0.16622967
-0.07506451 -0.10953984 0.14914122 -0.24124596 0.015561968 -0.12107006 -0.21496049 0.24454743
00000000: 0c1b fd3d d830 323d baa2 253e 78c3 1d3e
00000010: 26cd 32be 666a 46be 8810 033e e0c6 ee3c
00000020: ae67 733e 4091 2cbc 1435 a83d 20ef 45bd
00000030: 804c 15bc 60b3 eabd a826 c9bd a4f7 c83d
00000040: c4dd 1ebe 80ae f53d 443d 793e c002 783e
00000050: 4068 c7bd acaa 3c3e 4eea 32be e43a 743e
00000060: 7a2c 403e 4827 40bd 7025 23bd e0cf 7ebc
00000070: 3464 8c3d 946f e6bd d262 32be 4801 f53d
00000080: 32f9 5d3e aab9 023e 7c95 7dbe babc 15be
00000090: 8016 20be e488 81bd 1e91 6fbe 9071 8dbd
000000a0: 3c55 16be 22ad 74be b033 383e 4013 13be
000000b0: 0efc 67be e213 593e c065 44bc 8037 7f3b
000000c0: b4e4 603e b8b5 04be 4a85 0ebe 000f 09bd
000000d0: 1497 a03d 8c3b a03d 00f0 113a 1c38 2abe
000000e0: 6cbb 99bd 6c56 e0bd 7ab8 183e 2e09 77be
000000f0: a0f7 7e3c 94f3 f7bd 9a1e 5cbe a46a 7a3e

fc_net.conv_net.0.bias f4 [4]
-0.07067776 -0.05921462 0.07887867 0.10977924
00000000: 80bf 90bd 088b 72bd 248b a13d f0d3 e03d

fc_net.conv_net.2.weight f4 [8, 4, 4, 4]
0.08428854 -0.07912122 0.080772474 -0.007907882 -0.09644762 -0.001166895 -0.09555334 0.053559765
-0.0046271235 0.09334892 0.07292284 0.07439491 -0.08029193 -0.12364587 -0.10366434 0.05899349
0.053548485 -0.069702774 -0.03977257 0.051410556 0.059603333 0.023185357 -0.08629781 0.120008305
-0.07068393 -0.061975747 -0.1075777 0.023155615 0.066531986 -0.124902874 -0.043640867 0.058676228
-0.050587803 0.035274222 -0.09289469 0.041822717 -0.019183367 -0.00413467 0.09487833 0.06212692
-0.027883902 0.0026040971 0.04537712 0.079253495 -0.017256185 0.105803385 0.022758707 -0.00451608
0.068747565 -0.11264026 -0.0902659 0.07402223 0.0565584 -0.05100949 0.03880346 -0.09191094
-0.01589048 0.103822395 -0.09997192 0.120102465 -0.008507013 0.07555546 0.09429474 0.119232625
0.008966118 0.013400257 -0.064626545 -0.10567595 -0.009376943 0.08738631 0.008581117 -0.09245406
-0.029223084 0.07827619 0.0816347 -0.08132294 0.10004316 -0.049807593 -0.118760005 0.011308357
0.056018174 -0.091314554 0.049501136 0.11634411 -0.06272152 0.09575021 -0.043623403 0.043197915
0.08942811 0.08850631 0.08775221 -0.068050966 0.0016402304 0.024351552 -0.123968944 0.070785046
-0.02255918 -0.02046217 0.01638642 -0.10217707 0.04072225 0.11777651 -0.07799111 0.018326044
0.12285286 0.0073668957 0.03044653 0.09539075 -0.07563187 0.005096942 -0.04421003 0.0592466
-0.12250437 -0.0750093 -0.038894102 -0.07457936 -0.022774667 -0.08928308 -0.019681707 -0.063082784
-0.022312015 -0.112727135 -0.08126283 -0.035616547 -0.1150257 -0.081307486 -0.08419129 -0.105721295
0.11991769 0.1213931 0.124293044 0.11815508 -0.019824132 0.12317146 -0.065401256 -0.0100967735
-0.09689449 0.044754684 0.07025348 -0.054130107 0.059749007 0.0114967525 -0.048121914 0.12238476
-0.047987565 0.07763824 -0.04582089 -0.002092436 0.01602064 -0.06759256 -0.04097621 -0.0756014
-0.10246329 -0.010596886 0.026636183 -0.08032334 0.11574544 0.0858037 0.025840476 0.105722904
0.09120369 -0.068605855 -0.00965856 0.082585275 -0.022286326 -0.12177193 0.027026832 0.0112439245
0.08296014 -0.007045746 -0.041661456 0.047525615 -0.036411688 -0.0045946836 0.07097137 0.06050709
0.08581819 -0.046668977 -0.11771695 -0.06483024 0.02777104 -0.08588438 -0.026369616 -0.023627281
-0.07693751 0.10725854 0.118082196 0.02818136 0.068915755 -0.007244855 0.0952225 0.007575661
-0.07588531 -0.113824844 0.0829853 -0.10964489 0.05059591 0.021576807 0.009359613 0.01963219
-0.104991615 0.013663515 0.098559216 -0.10428931 -0.09057984 0.06094344 -0.08007483 -0.06426762
0.022964686 0.101858646 0.11068769 0.07250947 0.055096313 0.0041636825 0.12011005 0.111903414
-0.05443275 0.03998153 -0.0795092 0.035344586 0.07553376 0.0132301 0.009448543 -0.015305519
0.014066935 0.014277846 0.010995671 0.07231644 -0.045414418 0.12366207 -0.001874283 -0.10053411
0.10061978 -0.076959714 -0.08499934 0.11990838 0.062346563 0.09345798 0.042611063 -0.07839076
0.054368675 0.07483485 -0.03308572 0.07222368 0.033264786 0.02113232 -0.082167804 0.1034202
-0.08378714 0.10909696 0.07343528 -0.09727496 -0.03791617 0.10599439 0.12493163 0.052888677
00000000: 789f ac3d 4e0a a2bd 0a6c a53d 1090 01bc
00000010: 5486 c5bd 80f2 98ba 78b1 c3bd 7c61 5b3d
00000020: 209f 97bb b82d bf3d 9258 953d 5c5c 983d
00000030: 1870 a4bd 0c3a fdbd f84d d4bd 28a3 713d
00000040: a855 5b3d 54c0 8ebd 90e8 22bd e093 523d
00000050: a022 743d 38ef bd3c e8bc b0bd eac6 f53d
00000060: bcc2 90bd 48da 7dbd b251 dcbd d8b0 bd3c
00000070: ec41 883d 14cd ffbd c4c0 32bd 7c56 703d
00000080: 2835 4fbd b47b 103d 923f bebd 4c4e 2b3d
00000090: 7026 9dbc 207c 87bb 924f c23d cc78 7e3d
000000a0: c86c e4bc 80a9 2a3b 5cdd 393d a84f a23d
000000b0: d85c 8dbc 72af d83d 7870 ba3c a0fb 93bb
000000c0: 86cb 8c3d f0af e6bd 54dd b8bd f898 973d
000000d0: c8a9 673d 54ef 50bd 60f0 1e3d ce3b bcbd
000000e0: c02c 82bc d6a0 d43d 14be ccbd 48f8 f53d
000000f0: 0061 0bbc d2bc 9a3d 9a1d c13d 3c30 f43d
00000100: a0e6 123c c08c 5b3c ec5a 84bd a26c d8bd
00000110: c0a1 19bc 98f7 b23d d097 0c3c 8e58 bdbd
00000120: 4065 efbc 444f a03d 1830 a73d a48c a6bd
00000130: 6ee3 cc3d 0c03 4cbd 7238 f3bd b046 393c
00000140: 5073 653d 2003 bbbd b4c1 4a3d d245 ee3d
00000150: 2474 80bd b018 c43d 74ae 32bd 4cf0 303d
00000160: 1626 b73d cc42 b53d 6eb7 b33d 4e5e 8bbd
00000170: 00fd d63a e87c c73c 6ee3 fdbd c0f7 903d
00000180: 08ce b8bc 48a0 a7bc d03c 863c 3642 d1bd
00000190: 60cc 263d d034 f13d ceb9 9fbd 8020 963c
000001a0: 489a fb3d 0066 f13b 006b f93c 3a5c c33d
000001b0: e2e4 9abd 4004 a73b 9415 35bd 90ac 723d
000001c0: 92e3 fabd 7a9e 99bd 6c4f 1fbd 10bd 98bd
000001d0: f091 babc 0cda b6bd 883b a1bc 8c31 81bd
000001e0: b0c7 b6bc 7cdd e6bd 206d a6bd a8e2 11bd
000001f0: 9892 ebbd 8a84 a6bd 7c6c acbd 6884 d8bd
00000200: 6897 f53d f29c f83d 5a8d fe3d 4afb f13d
00000210: 3866 a2bc 5241 fc3d 18f1 85bd f06c 25bc
00000220: 9e70 c6bd b050 373d 0ee1 8f3d 88b7 5dbd
00000230: 60bb 743d e05c 3c3c 7c1b 45bd dca4 fa3d
00000240: 9c8e 44bd cc00 9f3d b0ae 3bbd 4021 09bb
00000250: b83d 833c f86d 8abd acd6 27bd e8d4 9abd
00000260: 46d8 d1bd 909e 2dbc 2034 da3c 9080 a4bd
00000270: f20b ed3d dab9 af3d 68af d33c 4085 d83d
00000280: 00c9 ba3d 3a81 8cbd f03e 1ebc 7822 a93d
00000290: d091 b6bc 9063 f9bd 6067 dd3c 7038 383c
000002a0: 02e7 a93d 00e0 e6bb 34a5 2abd 38aa 423d
000002b0: 6c24 15bd 008f 96bb 7059 913d 48d6 773d
000002c0: 72c1 af3d f827 3fbd 9615 f1bd b8c5 84bd
000002d0: 1880 e33c 26e4 afbd 1805 d8bc 008e c1bc
000002e0: 6a91 9dbd 5eaa db3d 14d5 f13d 98dc e63c
000002f0: b423 8d3d 4066 edbb 0404 c33d 403d f83b
00000300: c269 9bbd 001d e9bd 32f4 a93d 808d e0bd
00000310: a83d 4f3d d8c1 b03c 1059 193c b0d3 a03c
00000320: d805 d7bd f0dc 5f3c 6ad9 c93d a295 d5bd
00000330: ec81 b9bd d49f 793d 46fe a3bd be9e 83bd
00000340: 7020 bc3c 449b d03d 3ab0 e23d d87f 943d
00000350: acac 613d 806f 883b 42fc f53d 9e2d e53d
00000360: e0f4 5ebd acc3 233d b8d5 a2bd 7cc5 103d
00000370: 72b1 9a3d 10c3 583c 10ce 1a3c 00c4 7abc
00000380: 0079 663c a0ed 693c 3027 343c a41a 943d
00000390: 7804 3abd 8a42 fd3d 80aa f5ba d4e4 cdbd
000003a0: be11 ce3d 0e9d 9dbd 2214 aebd 8692 f53d
000003b0: 1c5f 7f3d e666 bf3d f088 2e3d 568b a0bd
000003c0: b0b1 5e3d 0443 993d e484 07bd 02ea 933d
000003d0: a840 083d b01d ad3c 9847 a8bd f8cd d33d
000003e0: 9898 abbd 3a6e df3d 3c65 963d 1838 c7bd
000003f0: fc4d 1bbd 9613 d93d 28dc ff3d cca1 583d

fc_net.conv_net.2.bias f4 [8]
0.11613287 0.052749112 -0.124490574 -0.009242058 -0.0872013 0.059451118 -0.017900154 0.028033435
00000000: 12d7 ed3d 740f 583d eaf4 febd 006c 17bc
00000010: 9896 b2bd 0483 733d 58a3 92bc 60a6 e53c

fc_net.conv_net.4.weight f4 [4, 8, 4, 4]
-0.048427675 0.02642481 0.08757044 0.08600976 0.039958186 0.08566374 -0.008537896 0.019505687
0.02851995 -0.04885786 -0.057328478 -0.041896652 0.079468064 -0.03588591 0.02368521 0.074733205
-0.06205625 0.08393981 -0.009411208 -0.05266058 0.0866107 -0.08563899 -0.0060889423 0.055457808
-0.029285654 0.043869875 -0.046340205 -0.075579435 0.05466076 0.008731827 0.017784834 0.06918668
0.05987265 0.044832177 0.059139125 -0.030506626 -0.084091134 0.013566859 0.030697435 -0.020762973
-0.057980206 -0.015041575 0.028007753 0.005522646 -0.030332569 0.07841023 -0.008748688 -0.026614185
0.035274908 -0.020726606 -0.00056415796 -0.0014853626 -0.054394573 -0.021500446 0.054408647 0.007859699
0.00033123046 0.0064277127 -0.07842712 -0.067465924 -0.06612079 -0.07236296 -0.045798104 0.04072211
0.006799847 0.04004497 -0.024126448 0.08046413 -0.020207152 -0.011038378 0.06279022 0.03939163
-0.018785343 -0.0013096854 0.03401407 -0.043489825 -0.023589715 0.042481564 0.035138562 -0.036775265
0.046612836 0.064148866 0.073162265 -0.07799485 0.05915945 -0.08704502 -0.018963762 0.064077
0.013806224 -0.040024858 -0.07825006 0.07832161 0.030613087 0.044817887 -0.04119866 -0.052909087
0.06538028 -0.02236534 -0.06428304 0.06607439 0.011241227 -0.046782263 -0.02256088 -0.083809
-0.0048378855 0.022345826 -0.07927708 0.017804638 0.082350574 0.036748253 0.05379934 0.048294
-0.07109148 0.060676105 -0.0031094253 -0.039505325 -0.07655569 0.078087695 -0.021765403 -0.04386258
-0.04173185 -0.016780674 -0.0076580793 -0.08835488 0.009347834 -0.0211358 -0.017668508 -0.018586405
-0.056333035 0.03826975 -0.05555239 -0.0133598 0.08455189 0.024976179 -0.011277936 -0.041275777
-0.047699865 0.019520693 -0.071993575 -0.077852264 0.08036018 -0.0277871 -0.08361826 -0.045124564
0.050666668 0.024117097 0.034783386 -0.051603094 0.014959864 0.07651193 0.017529756 -0.08306253
0.062722735 0.00050806254 0.030489191 0.07575122 0.037172563 0.065535225 0.06638781 -0.08205956
-0.045265798 0.06877545 0.05757094 0.017260537 -0.04070162 -0.009384818 -0.00038396567 -0.08650742
-0.023293823 -0.009190954 -0.07617292 -0.041122533 0.03808438 0.061434455 -0.034635372 -0.006878458
-0.04977131 -0.07456634 -0.039072078 -0.023193203 -0.07343255 -0.012188919 -0.0033368468 0.05945959
-0.029674143 -0.017175853 0.08335475 -0.03913614 -0.01623135 0.05585312 0.067743875 -0.07209648
-0.024054073 -0.048640773 0.026518628 -0.0118729025 -0.018225476 -0.0053565726 0.0032773167 0.055729784
0.05255545 -0.033280604 -0.053860582 -0.017792106 0.0872053 0.05761581 0.07505841 -0.08042759
0.04728865 -0.011523612 0.07350064 -0.06606845 -0.002089642 0.034512475 -7.066876e-05 0.04030139
-0.085947886 0.0119755715 -0.064572364 0.074961744 -0.021793112 -0.05005624 0.045328073 -0.08176929
-0.047829255 0.01487942 -0.04633206 -0.019327499 -0.068911806 -0.03156386 0.044570632 -0.07959025
0.0819082 0.066537835 0.002843134 0.051910438 -0.053018354 0.046771698 0.08087865 -0.048004806
0.059460662 -0.07963408 0.04756268 0.00016405433 -0.076819435 0.026653036 -0.043212477 -0.05116016
-0.032382634 0.04443539 -0.029325966 0.08595709 -0.021482207 0.04023034 0.017719842 0.0644776
00000000: 195c 46bd d878 d83c 2158 b33d e325 b03d
00000010: 32ab 233d 7970 af3d 88e2 0bbc 64ca 9f3c
00000020: aca2 e93c 2e1f 48bd 44d1 6abd d39b 2bbd
00000030: 27c0 a23d 1bfd 12bd 7c07 c23c b90d 993d
00000040: b22e 7ebd a3e8 ab3d 7831 1abc 9fb2 57bd
00000050: f360 b13d 7f63 afbd c085 c7bb ba27 633d
00000060: 78e8 efbc e6b0 333d 3acf 3dbd 64c9 9abd
00000070: f6e3 5f3d f00f 0f3c 80b1 913c bfb1 8d3d
00000080: 063d 753d f2a1 373d de3b 723d 08e9 f9bc
00000090: f937 acbd 8847 5e3c 3079 fb3c 1c17 aabc
000000a0: a77c 6dbd f070 76bc 8470 e53c 50f7 b43b
000000b0: 027c f8bc 8b95 a03d a856 0fbc fe05 dabc
000000c0: 6c7c 103d d8ca a9bc 00e4 13ba 80b0 c2ba
000000d0: d8cc 5ebd b421 b0bc 9adb 5e3d f8c5 003c
000000e0: 00a9 ad39 909f d23b 669e a0bd 932b 8abd
000000f0: 566a 87bd 0833 94bd cb96 3bbd 3acc 263d
00000100: 40d1 de3b 3206 243d d4a4 c5bc 61ca a43d
00000110: 7889 a5bc 50da 34bc 2998 803d 1e59 213d
00000120: b8e3 99bc c0a9 abba 5652 0b3d 6322 32bd
00000130: 383f c1bc 2601 2e3d 74ed 0f3d a9a1 16bd
00000140: 1aed 3e3d 7b60 833d 19d6 953d c4bb 9fbd
00000150: 2e51 723d a944 b2bd e459 9bbc cd3a 833d
00000160: 8033 623c 1bf1 23bd 9141 a0bd 1567 a03d
00000170: 4cc8 fa3c f692 373d edbf 28bd 33b7 58bd
00000180: 19e6 853d 8437 b7bc d4a6 83bd 0352 873d
00000190: 202d 383c c29e 3fbd 98d1 b8bc 0ea4 abbd
000001a0: 2087 9ebb 980e b73c 065c a2bd 08db 913c
000001b0: 6ba7 a83d 5685 163d b25c 5c3d eecf 453d
000001c0: 6998 91bd 8287 783d 80c7 4bbb 56d0 21bd
000001d0: 3bc9 9cbd 71ec 9f3d 5c4d b2bc 40a9 33bd
000001e0: 04ef 2abd a077 89bc a0f0 fabb 67f3 b4bd
000001f0: a827 193c fc24 adbc 8cbd 90bc 8442 98bc
00000200: 78bd 66bd bec0 1c3d e78a 63bd 10e3 5abc
00000210: 8b29 ad3d d89a cc3c 18c7 38bc ca10 29bd
00000220: ef60 43bd dce9 9f3c 5e71 93bd 0271 9fbd
00000230: e193 a43d c6a1 e3bc 0d40 abbd 89d4 38bd
00000240: da87 4f3d 3891 c53c 0679 0e3d c45d 53bd
00000250: 381a 753c 49b2 9c3d 909a 8f3c b01c aabd
00000260: c774 803d 802f 053a 78c4 f93c 7523 9b3d
00000270: 4242 183d 5537 863d 55f6 873d d80e a8bd
00000280: a168 39bd 25da 8c3d 82cf 6b3d f865 8d3c
00000290: beb6 26bd c8c2 19bc 004f c9b9 cd2a b1bd
000002a0: b0d2 bebc a895 16bc 8c00 9cbd 1a70 28bd
000002b0: 5efe 1b3d b2a2 7b3d d2dd 0dbd b064 e1bb
000002c0: 00dd 4bbd 3db6 98bd 0b0a 20bd acff bdbc
000002d0: ce63 96bd 08b4 47bc 00af 5abb e68b 733d
000002e0: 3017 f3bc 60b4 8cbc e5b5 aa3d 384d 20bd
000002f0: 9cf7 84bc 3ec6 643d 4dbd 8a3d 52a7 93bd
00000300: 0c0d c5bc 8c3b 47bd 983d d93c 9086 42bc
00000310: 984d 95bc 3086 afbb 40c8 563b ea44 643d
00000320: 6244 573d 3e51 08bd ea9c 5cbd c0c0 91bc
00000330: b198 b23d 8efe 6b3d 39b8 993d 38b7 a4bd
00000340: beb1 413d 88cd 3cbc 8187 963d e54e 87bd
00000350: 60f2 08bb f45c 0d3d 0034 94b8 1213 253d
00000360: 7205 b0bd 3035 443c 843e 84bd 8b85 993d
00000370: 7887 b2bc c607 4dbd eea9 393d a876 a7bd
00000380: 9ce8 43bd d0c8 733c b0c6 3dbd b454 9ebc
00000390: a221 8dbd 1b49 01bd b28f 363d 3700 a3bd
000003a0: 7dbf a73d fd44 883d e053 3a3b 0aa0 543d
000003b0: c629 59bd ae93 3f3d b5a3 a53d b0a0 44bd
000003c0: 068d 733d 3117 a3bd 16d1 423d 0006 2c39
000003d0: 8253 9dbd 7857 da3c 91ff 30bd 518d 51bd
000003e0: a7a3 04bd e201 363d 023d f0bc 450a b03d
000003f0: 74fb afbc 92c8 243d 3429 913c d50c 843d

fc_net.conv_net.4.bias f4 [4]
-0.019149147 0.05875156 0.062638186 -0.04910011
00000000: acde 9cbc 7aa5 703d 7348 803d 321d 49bd

fc_net.conv_net.6.weight f4 [1, 4, 4, 4]
0.04822986 -0.11944388 0.11091001 -0.009337604 -0.102057174 0.10991284 0.014000371 -0.0058575124
-0.09120034 -0.010054022 -0.06981118 0.10693298 -0.101682216 -0.024194136 -0.08746229 -0.11257824
-0.11665583 -0.06683615 0.08708504 -0.04084955 0.12372182 0.045121938 -0.022240981 -0.06864239
-0.026029453 -0.118371025 0.03559816 0.042341247 0.027948648 -0.07003684 -0.05858043 -0.09162402
0.014225811 0.061040908 -0.08850454 0.09906258 0.120843306 0.049728587 0.00011900067 -0.047776774
0.0070424527 -0.051947102 -0.050303698 -0.034522563 0.04111117 -0.012540162 0.0674822 -0.007035807
-0.114653245 -0.12235123 -0.03760451 0.0015723705 0.09010024 0.015877947 -0.11074859 0.12434043
0.068988115 -0.015549451 0.05872844 0.04163158 -0.100385696 -0.08842692 0.052746966 0.03219576
00000000: ac8c 453d fe9e f4bd ca24 e33d c0fc 18bc
00000010: 5a03 d1bd fc19 e13d d061 653c 60f0 bfbb
00000020: 3ec7 babd a0b9 24bc 2af9 8ebd aeff da3d
00000030: c43e d0bd c832 c6bc 6e1f b3bd 6c8f e6bd
00000040: 40e9 eebd 64e1 88bd a459 b23d dc51 27bd
00000050: de61 fd3d c8d1 383d b832 b6bc 6294 8cbd
00000060: b83b d5bc 826c f2bd 60cf 113d 046e 2d3d
00000070: 90f4 e43c 7a6f 8fbd 08f2 6fbd 60a5 bbbd
00000080: 6013 693c 0806 7a3d de41 b5bd 52e1 ca3d
00000090: b27c f73d 34b0 4b3d 0090 f938 94b1 43bd
000000a0: 60c4 e63b 7cc6 54bd 400b 4ebd 8867 0dbd
000000b0: 3064 283d 4075 4dbc 1c34 8a3d a08c e6bb
000000c0: 52cf eabd 4893 fabd 3007 1abd 0018 ce3a
000000d0: 7a86 b83d 7812 823c 28d0 e2bd 32a6 fe3d
000000e0: a449 8d3d 20c3 7ebc 3c8d 703d e085 2a3d
000000f0: 0497 cdbd 2c19 b5bd 340d 583d b4df 033d

action_head.weight f4 [3, 64]
-0.056749705 -0.10320401 -0.04585075 -0.07952064 -0.025302323 0.10724494 -0.11709663 -0.11138557
-0.09797229 0.033417974 -0.051370088 0.055801373 -0.09315428 -0.06826407 0.06886339 -0.005004598
-0.013656063 0.003800107 0.03876211 -0.03611506 0.09105256 0.05680811 0.11513989 0.10465039
-0.115345076 0.06354265 0.08984877 0.09943792 0.06660412 0.07178551 0.05045172 -0.005826605
-0.07687999 0.08342177 -0.10425843 0.05921137 0.007444876 -0.10540357 -0.11882532 0.10843116
0.0009135732 0.021936161 0.05117913 -0.016344862 0.0479928 -0.09525861 0.053952154 -0.050228257
-0.034335677 0.029228864 0.0018126493 -0.013138132 -0.0014026037 0.099423245 0.01084991 -0.05980468
-0.06247263 0.107528195 -0.11636649 0.04866914 -0.027711775 0.025274398 -0.052137535 -0.0822511
-0.058716495 -0.09071873 -0.041699823 0.007941036 0.0656376 -0.071768254 -0.07608473 -0.08083774
-0.06276494 0.00410715 -0.06529972 -0.1222821 0.055889618 0.014159279 -0.048895393 0.053349454
0.034338508 0.04359321 -0.051776055 0.07388574 0.10833451 -0.05773816 0.04360244 -0.0015901497
-0.0024467132 -0.11093734 0.007959364 0.07578553 -0.008011134 -0.042735573 0.11288941 -0.07219508
0.1192607 -0.11284068 0.09039359 0.044117283 -0.074878156 -0.09905794 0.08368401 0.06273766
-0.07359032 -0.064383626 -0.10943863 0.09530632 0.08098817 -0.06652169 0.038218316 -0.103138044
0.04786196 0.014897032 0.023133708 -0.076848134 0.034184705 -0.10670146 -0.067393765 -0.02014017
-0.03112295 0.054934915 -0.10457677 0.09857154 -0.08920872 0.08299461 -0.051677387 0.122094795
0.06730986 0.08893812 0.0757138 0.002247093 0.034287397 0.1172986 0.009743763 0.013178868
-0.030186685 -0.114664495 -0.11484267 0.08179034 0.09591131 -0.0060433024 -0.03056456 0.078278586
-0.09783992 0.01693024 0.116660625 -0.06370494 0.09740323 -0.09418197 0.03712822 -0.061469104
0.022186505 0.012729244 0.0069690812 -0.040313642 -0.112597436 0.040506955 0.11191976 -0.008181645
0.034129027 0.08933674 -0.040894467 -0.10622817 0.08001995 -0.04937287 -0.07280639 0.0748674
0.03180645 -0.07853779 0.022532957 0.088407606 0.023692043 0.080886036 0.0032603017 0.061144788
-0.06283614 -0.035934877 -0.056375798 0.043941412 -0.08353202 0.031116756 0.034903828 0.09638192
-0.111800596 -0.019758778 0.110391095 0.071361154 -0.028544946 0.112372294 -0.019617723 -0.09120464
00000000: 6172 68bd a05c d3bd ffcd 3bbd b8db a2bd
00000010: d146 cfbc 3ca3 db3d 5cd0 efbd 1e1e e4bd
00000020: b2a5 c8bd 49e1 083d 7169 52bd fb8f 643d
00000030: acc7 bebd 08ce 8bbd 4008 8d3d 9cfd a3bb
00000040: aebd 5fbc 370b 793b 05c5 1e3d 63ed 13bd
00000050: c479 ba3d 9faf 683d 76ce eb3d f252 d63d
00000060: 0a3a ecbd a622 823d a202 b83d 1ca6 cb3d
00000070: be67 883d 4804 933d 76a6 4e3d 1bed bebb
00000080: 4273 9dbd 08d9 aa3d 7285 d5bd 9f87 723d
00000090: 25f4 f33b d4dd d7bd b05a f3bd 2811 de3d
000000a0: dc7c 6f3a 77b3 b33c 35a1 513d a9e5 85bc
000000b0: 1994 443d f216 c3bd effc 5c3d 25bc 4dbd
000000c0: 91a3 0cbd 5f71 ef3c 6b96 ed3a 5241 57bc
000000d0: 92d7 b7ba 6a9e cb3d d2c3 313c c1f5 74bd
000000e0: 4de3 7fbd be37 dc3d 8e51 eebd 4b59 473d
000000f0: ce03 e3bc 410c cf3c 2b8e 55bd 4473 a8bd
00000100: b580 70bd beca b9bd 6fcd 2abd 1e1b 023c
00000110: 026d 863d 3cfb 92bd 50d2 9bbd 428e a5bd
00000120: e88a 80bd 4595 863b dcbb 85bd 0a6f fabd
00000130: 83ec 643d 52fc 673c 8946 48bd f584 5a3d
00000140: 89a6 0c3d cb8e 323d 2113 54bd 6851 973d
00000150: 7cde dd3d d97e 6cbd 7998 323d 926c d0ba
00000160: 0959 20bb 1e33 e3bd fe67 023c 7235 9b3d
00000170: 2241 03bc 7f0b 2fbd 9032 e73d 04db 93bd
00000180: f43e f43d 0419 e7bd 4620 b93d 53b4 343d
00000190: b859 99bd e4de cabd 8662 ab3d 9a7c 803d
000001a0: 86b6 96bd 90db 83bd 5c21 e0bd f62f c33d
000001b0: 20dd a53d 863c 88bd cf8a 1c3d 0a3a d3bd
000001c0: e70a 443d ae12 743c e782 bd3c 8e62 9dbd
000001d0: 4305 0c3d 4c86 dabd be05 8abd fffc a4bc
000001e0: 8ff5 febc 6f03 613d 582c d6bd e0df c93d
000001f0: 10b3 b6bd 14f9 a93d abab 53bd d60c fa3d
00000200: c0d9 893d 3025 b63d d60f 9b3d f743 133b
00000210: f170 0c3d 403a f03d 4ea4 1f3c 2eec 573c
00000220: 114a f7bc 38d5 eabd a232 ebbd b281 a73d
00000230: 266d c43d e506 c6bb 8762 fabc 8650 a03d
00000240: 4c60 c8bd 49b1 8a3c c4eb ee3d bc77 82bd
00000250: 587b c73d 7ae2 c0bd c313 183d 07c7 7bbd
00000260: 79c0 b53c 528e 503c e45c e43b eb1f 25bd
00000270: 7c99 e6bd 9fea 253d 3036 e53d 4e0c 06bc
00000280: e1ca 0b3d 2ef6 b63d f580 27bd 288e d9bd
00000290: 80e1 a33d 353b 4abd 841b 95bd 1454 993d
000002a0: 7b47 023d 6cd8 a0bd 0997 b83c 0c0f b53d
000002b0: d115 c23c 94a7 a53d c9aa 553b f572 7a3d
000002c0: 3cb0 80bd 7330 13bd 4fea 66bd e9fb 333d
000002d0: d612 abbd 91e8 fe3c 51f7 0e3d e263 c53d
000002e0: b6f7 e4bd 29dd a1bc ba14 e23d cc25 923d
000002f0: 17d7 e9bc 7223 e63d 59b5 a0bc 80c9 babd

action_head.bias f4 [3]
0.08580737 -0.06868608 0.053626683
00000000: c6bb af3d 4aab 8cbd a7a7 5b3d
