output/3x3Traffic-domain-PPO-test/best.pth (torch, 62255 bytes, 14 tensors)

fc_net.fc_net.0.weight f4 [64, 132]
0	0xbd9cde2f	-0.07659566
1	0xbda115a8	-0.07865459
2	0xbab672ad	-0.0013919674
3	0x3d9117f0	0.07084644
4	0x3c670b8c	0.014101874
5	0x3d3a5513	0.04549129
6	0x3dadb5e2	0.08481957
7	0xbcfc4d6e	-0.03079864
8	0xbd7d5ee0	-0.061858058
9	0xbc0f0acc	-0.0087306015
10	0x3d41dd1a	0.04733
11	0x3d8bc067	0.06823807
12	0xbd16b8ef	-0.03679746
13	0xbd3b295a	-0.045693733
14	0xbd53f813	-0.051750254
15	0xba95ffed	-0.001144407
16	0x3d614ba0	0.055003762
17	0xbda7e51f	-0.08197998
18	0xbd66713d	-0.056260336
19	0xbc54c837	-0.012987188
20	0x3c0a1beb	0.008429508
21	0x3c731104	0.0148356
22	0xbd79e9f9	-0.06101415
23	0xbd051738	-0.032492846
24	0xbd5bc213	-0.05365188
25	0x3d08dd06	0.03341391
26	0x3dafd94d	0.08586369
27	0xbd41a5d3	-0.047277283
28	0xbd9d33ae	-0.07675873
29	0xbd4c419f	-0.04986727
30	0xbb287520	-0.0025704578
31	0x3d378d70	0.04481262
32	0xbb1a0920	-0.0023503974
33	0xbd9cfb45	-0.07665113
34	0x3d4eb1d1	0.050462548
35	0x3d45cca0	0.04829085
36	0xbc9b6205	-0.018967638
37	0xbc4d750b	-0.012540112
38	0xbdae42e8	-0.08508855
39	0xbc6e08ba	-0.014528448
40	0xbc616935	-0.0137579935
41	0xbd136661	-0.035986308
42	0x3a991dca	0.0011681851
43	0xbc474d3b	-0.012164409
44	0xbcfd3b5b	-0.030912092
45	0xbbfe3777	-0.007758077
46	0xbd2a9ab4	-0.041651443
47	0xbba22f0b	-0.0049494556
48	0xbd0f033c	-0.034915194
49	0xbc22acbc	-0.009928878
50	0xbd75f55c	-0.060048446
51	0xbda72914	-0.08162132
52	0x3c8a598d	0.016888404
53	0xbcfc8894	-0.030826844
54	0xbc52bf76	-0.012863031
55	0x3d52a2ea	0.0514249
56	0xbd28d3cc	-0.04121761
57	0xbd42843f	-0.0474894
58	0xbc5e5082	-0.013568999
59	0x3da314d6	0.079629585
60	0xbc31da30	-0.010855243
61	0x3d5b4d78	0.053540677
62	0xbd856fd7	-0.065154724
63	0xbd075d0d	-0.033047725
64	0x3d18ad02	0.037274368
65	0x3d6b8f10	0.057509482
66	0xbd2535cc	-0.040334508
67	0x3d4f4054	0.050598457
68	0xbda757ed	-0.081710674
69	0x3b7562ba	0.0037442879
70	0xbd4572f3	-0.048205327
71	0x3d471561	0.048604373
72	0x3d0eb0f7	0.034836736
73	0x3d8f0bd5	0.06984679
74	0xbc778cf1	-0.015109287
75	0x3c064c65	0.008196925
76	0x3d0fce6c	0.03510897
77	0xbd1e4864	-0.038643256
78	0x3d53adf7	0.051679578
79	0xbd77219a	-0.06033478
80	0xbda1e4e5	-0.07904986
81	0xbdb318b3	-0.087449454
82	0xbd0b9525	-0.034077782
83	0x3c933670	0.017970294
84	0x3d273306	0.040820144
85	0xbd74c763	-0.059760462
86	0xbcf8b5d6	-0.030360144
87	0xbc81121f	-0.015755711
88	0x3d950d21	0.07277895
89	0x3d87515b	0.06607314
90	0xb703dd9f	-7.859809e-06
91	0x3af98e41	0.0019039587
92	0x3d1673b8	0.03673145
93	0xbd71ccaa	-0.059033073
94	0xbdab3c11	-0.08361066
95	0xbdb02459	-0.08600683
96	0xbd275eb7	-0.04086181
97	0x3d827c9a	0.06371422
98	0x3cd4c788	0.02597405
99	0xbcbcbb2f	-0.023038475
100	0xbd842c41	-0.06453753
101	0x3d8a30c9	0.06747586
102	0xbd70598e	-0.058679156
103	0xbd0de7b7	-0.03464481
104	0x3d8f85a3	0.07007911
105	0xbd041450	-0.032245934
106	0x3d152dfd	0.03642081
107	0x3d7125d0	0.05887395
108	0x3c7299f4	0.014807213
109	0x3c9441d4	0.018097796
110	0xbca35d94	-0.019942082
111	0xbc501430	-0.012700126
112	0x3d8a9d0e	0.06768237
113	0x3d4799b0	0.048730552
114	0x3d495512	0.049153395
115	0x3d8eaf49	0.06967027
116	0x3d8e1a86	0.06938653
117	0x3bef1d6d	0.007297209
118	0x3dae00b8	0.08496231
119	0x3ce0c932	0.027439687
120	0xbc89f0f6	-0.016838532
121	0xbdbb1562	-0.09134938
122	0xbb730b9f	-0.0037085784
123	0xbd0a236c	-0.033725187
124	0xbd69ca7c	-0.05707787
125	0x3d2a8024	0.04162611
126	0xbd8af230	-0.06784475
127	0x3d2a9ad4	0.04165156
128	0xbcee707c	-0.029106371
129	0xbd975eb0	-0.07391107
130	0x3ccaa034	0.024734594
131	0xbd57869f	-0.05261862
132	0x3cea0c89	0.02857043
133	0xbcbf10f6	-0.023323517
134	0xbc978577	-0.018496258
135	0x3d910ae3	0.070821546
136	0x3d969b26	0.07353811
137	0xbd1ed538	-0.03877756
138	0x3ca52c5c	0.020162754
139	0xbd62c7db	-0.05536638
140	0x3d72899e	0.059213273
141	0x3d87942c	0.066200584
142	0xbda097f6	-0.07841484
143	0xbc333ac3	-0.010939303
144	0xbcfe817a	-0.031067599
145	0x3db3ef04	0.08785823
146	0xbd8e008a	-0.069336966
147	0x3ca47e38	0.020079717
148	0xbd2617a1	-0.040549878
149	0xbd0869d1	-0.03330404
150	0x3bc47a31	0.0059960117
151	0xbcb8f789	-0.022578971
152	0xbbf8b62d	-0.0075900764
153	0x3c042e8c	0.008067738
154	0xbd082e1f	-0.03324711
155	0xbd79ec9f	-0.061016675
156	0x3d7eb833	0.062187385
157	0xbd3517a4	-0.044212
158	0xbd0275bf	-0.031850573
159	0x3d3ed994	0.046594217
160	0xbcc7dd90	-0.024397641
161	0xbd669d30	-0.05630225
162	0xbd86afc1	-0.06576491
163	0xbcfb4dfe	-0.030676838
164	0x3d6f687c	0.058449253
165	0xbc91f124	-0.01781518
166	0x3d9bbc30	0.07604253
167	0xbd5ac879	-0.053413842
168	0xbdb07405	-0.08615879
169	0xbc159c4a	-0.0091315005
170	0x3cbee455	0.023302237
171	0xbcbc79db	-0.023007324
172	0x3d55fdce	0.052244
173	0x3a5e36cb	0.0008476793
174	0x3c4cfbfb	0.012511249
175	0x3d07655e	0.033055656
176	0x3ccb6032	0.024826143
177	0xbb80f27c	-0.0039351564
178	0x3ca533b1	0.02016625
179	0xbd51fe7f	-0.051268097
180	0xbcb2b196	-0.021813195
181	0xbd747701	-0.059683803
182	0xbd19de73	-0.03756566
183	0x3cf3b5d2	0.029749785
184	0xbd281e77	-0.04104468
185	0x3dafc537	0.085825376
186	0x3da03d56	0.07824199
187	0xbce87d93	-0.028380191
188	0xbcec4e37	-0.02884589
189	0x3cfcf990	0.03088072
190	0xbd99b98a	-0.07506092
191	0xbd8f5d46	-0.07000212
192	0xbc3a7750	-0.011380985
193	0x3d807c02	0.062736526
194	0x3dac5c7c	0.084160775
195	0xbd32f17c	-0.04368733
196	0x3da51a8e	0.080617055
197	0x3d8835c0	0.06650877
198	0xbd233f11	-0.039855067
199	0x3d3337d3	0.04375441
200	0x3da9450c	0.08265123
201	0xbc2dad09	-0.010600337
202	0x3d6beb19	0.057597253
203	0x3d455326	0.048175
204	0x3cf9b91a	0.030483771
205	0xbcc6bf52	-0.02426115
206	0x3d9e9523	0.07743289
207	0xbd32189e	-0.043480508
208	0x3db41d93	0.08794703
209	0xbd72afe9	-0.059249792
210	0x3d71bde9	0.059019003
211	0x3db307ee	0.08741747
212	0x3cf2ab6e	0.02962276
213	0x3d7756d3	0.060385536
214	0x3c8f97c4	0.017528422
215	0xbd536785	-0.051612396
216	0x3d82b40c	0.063819975
217	0x3cde614c	0.027146004
218	0xbd6116f9	-0.05495355
219	0x3d43f972	0.04784531
220	0x3c7f626d	0.015587431
221	0x3d6569b2	0.056009002
222	0xbcdc883c	-0.02692043
223	0xbd7b4cf3	-0.06135268
224	0x3d6168de	0.05503165
225	0x3d8e0e20	0.06936288
226	0x3c5f20a8	0.013618626
227	0x3db233d0	0.08701289
228	0xbc6a9da8	-0.014319815
229	0xbb3cc640	-0.002880469
230	0x3c4c0678	0.012452714
231	0xbba364db	-0.004986388
232	0x3d077811	0.03307349
233	0x3d97045e	0.0737388
234	0x3da0640a	0.07831581
235	0x3cf84569	0.030306535
236	0xbd88c73d	-0.06678627
237	0xbd0dd13f	-0.03462338
238	0xbd82dd15	-0.06389824
239	0x3bedce4b	0.007257258
240	0xbd641ca2	-0.05569137
241	0x3d147e59	0.036253307
242	0xbd161cc9	-0.036648545
243	0x3d16557a	0.03670261
244	0xbbb2f535	-0.00546136
245	0x3d6ea444	0.058262125
246	0x3da408f4	0.0800952
247	0xbd933029	-0.0718692
248	0xbd5b569b	-0.05354939
249	0xbd568688	-0.052374393
250	0x3d99f050	0.07516539
251	0xbd4a652b	-0.049412888
252	0x3d819fe7	0.06329327
253	0x3d31caeb	0.04340641
254	0x3d0a5908	0.033776313
255	0x3de037b7	0.10948127

fc_net.fc_net.0.bias f4 [64]
0	0x3a684cce	0.00088615424
1	0x3d0b6e61	0.034040812
2	0xbd3b91a2	-0.045793183
3	0x3d56c386	0.05243256
4	0x3d8d11a8	0.06888133
5	0x3beec69a	0.0072868587
6	0xbba86023	-0.0051384135
7	0xbd8c869c	-0.06861612
8	0x3d5a2d0d	0.05326562
9	0x3d29c83c	0.041450724
10	0xbd821742	-0.06352092
11	0xbc153ed1	-0.009109215
12	0xbd251353	-0.040301632
13	0x3d84f328	0.06491691
14	0xbd8f626b	-0.070011936
15	0xbd037949	-0.03209809
16	0x3d77ce25	0.06049933
17	0x3d259590	0.040425837
18	0x3d6f7b5f	0.058467265
19	0x3d6db2e0	0.058031917
20	0x3cc03b3b	0.023465743
21	0x3ccfb21e	0.025353488
22	0x3c85fbd3	0.01635543
23	0xbc6b510f	-0.014362588
24	0x3b8a1fa2	0.0042151967
25	0xbb84abff	-0.004048824
26	0x3b0d7dd5	0.0021589894
27	0x3da52296	0.08063237
28	0xbd33f6b1	-0.043936435
29	0x3c6ebf9b	0.0145720495
30	0x3da07b4c	0.07836017
31	0x3d95fdb1	0.073237784
32	0x3db61297	0.088902645
33	0x3ce87d6a	0.028380115
34	0xbda90ec7	-0.08254772
35	0x3d9f71ea	0.07785399
36	0xbccbad7c	-0.024862997
37	0x3db68e56	0.08913867
38	0x3d942d04	0.072351485
39	0xbd698416	-0.057010733
40	0x3cde1bd5	0.02711288
41	0x3d8fc40a	0.07019813
42	0xba0c3481	-0.00053484
43	0xbd90502e	-0.07046543
44	0x3d6f5260	0.05842817
45	0xbcf14624	-0.029452391
46	0x3d968787	0.073500685
47	0x3cbce164	0.023056693
48	0x3c77fe3d	0.015136299
49	0x3c76301a	0.015026117
50	0x3bae22af	0.005314193
51	0x3c82fcf3	0.015989756
52	0x3d628987	0.055306938
53	0xbd8e4d86	-0.0694838
54	0x3d9b04f1	0.07569302
55	0xbdb32c31	-0.08748663
56	0xbd1fe4ce	-0.039036565
57	0x3cfb8afc	0.030705921
58	0xbc824f2f	-0.015906898
59	0xbc2d2b02	-0.010569336
60	0xbd57fc1e	-0.052730672
61	0x3c2469e3	0.010035011
62	0x3d03859b	0.032109838
63	0x3d495afe	0.049159043

fc_net.fc_net.2.weight f4 [64, 64]
0	0xbd4a9b91	-0.049464766
1	0x3c984c17	0.01859097
2	0x3e00faca	0.12595668
3	0x3b1d8e4f	0.0024041121
4	0x3df80310	0.12109959
5	0xbdb8893c	-0.090105504
6	0xbcdf5fb3	-0.027267313
7	0xbdb1b591	-0.08677209
8	0x3d67664f	0.056494053
9	0xbb63a008	-0.0034732837
10	0xbcf3b5f0	-0.02974984
11	0xbde68b52	-0.11257042
12	0xbdde9d95	-0.108699
13	0x3d9b8aa9	0.07594807
14	0x3dbd76db	0.092511855
15	0xbdea069b	-0.11427041
16	0xbcbd711f	-0.02312523
17	0xbdb4c84c	-0.08827266
18	0x3dc5e829	0.09663422
19	0xbd5f01cb	-0.05444507
20	0x3be49054	0.006975213
21	0x3d75b21b	0.059984308
22	0x3dc7d37f	0.097571366
23	0x3c6a0d03	0.014285329
24	0x3c582237	0.013191751
25	0xbd1f9cf3	-0.038968038
26	0x3dd25053	0.10269227
27	0xbd3beb8e	-0.04587894
28	0x3d256978	0.040383786
29	0x3c5b8ae4	0.013399813
30	0xbdd78a1e	-0.10524391
31	0xbd137caf	-0.03600758
32	0xbdd035e9	-0.101665325
33	0x3df5d417	0.120033436
34	0xbdfb80b9	-0.12280411
35	0xbdb100d2	-0.086427346
36	0x3d84d11a	0.064851955
37	0xbd60b15d	-0.054856647
38	0x3df66bac	0.120322555
39	0x3d363764	0.04448642
40	0x3dbeb8d8	0.093126
41	0x3dd12cae	0.102136
42	0xbdf1f450	-0.11814177
43	0xbd05d2f1	-0.032671873
44	0x3d427979	0.047479127
45	0x3db62c28	0.08895141
46	0xbd8af135	-0.06784288
47	0x3da8bd9f	0.08239292
48	0x3dfdf82b	0.1240085
49	0xbd8b7305	-0.068090476
50	0xbd87344d	-0.066017725
51	0xbce7efd8	-0.028312609
52	0xbbfcb96e	-0.0077125346
53	0xbc26d158	-0.010181747
54	0x3c4b5dfa	0.0124125425
55	0xbd1fdb0a	-0.03902725
56	0x3de040bc	0.10949847
57	0x3d9e571d	0.07731459
58	0x3de2d253	0.110752724
59	0x3d9c9440	0.07645464
60	0x3df659f1	0.12028874
61	0xbd341e32	-0.04397411
62	0xbded6c4f	-0.11592924
63	0xbd8c4559	-0.068491645
64	0x3da5cbc9	0.080955096
65	0xbb9560db	-0.004558665
66	0xbd4be867	-0.049782183
67	0xbde9094d	-0.11378727
68	0x3de5d05b	0.11221381
69	0xbd2db383	-0.042407524
70	0x3d1ebed1	0.038756195
71	0xbc6110d6	-0.013736924
72	0xbdf4bfbb	-0.11950632
73	0x3cc61a03	0.024182325
74	0x3da44acc	0.08022079
75	0x3dbff19f	0.093722574
76	0x3cb3a35b	0.02192848
77	0xbdc5e631	-0.09663046
78	0x3d174d50	0.036938965
79	0x3dd85013	0.10562148
80	0xbd8330a1	-0.064057596
81	0x3d0de5fb	0.034643155
82	0x3d2eae7f	0.04264688
83	0x3cf8cb59	0.030370401
84	0x3cbf8daf	0.02338299
85	0x3df88fa9	0.12136776
86	0xbd5390f5	-0.051651914
87	0xbdbd14fc	-0.09232518
88	0xbd91727c	-0.07101914
89	0xbdfc4324	-0.123174936
90	0xbdaa0995	-0.08302609
91	0x3d4b6327	0.049655106
92	0x3da2197a	0.079150155
93	0xbc17b492	-0.00925936
94	0x3df27ff1	0.11840809
95	0x3d95f3f3	0.0732192
96	0x3dcaf8bd	0.09910724
97	0x3cf47d9d	0.029845053
98	0x3de2422b	0.11047777
99	0x3df93c47	0.121697
100	0x3d63e617	0.055639353
101	0x3dab88ca	0.083757
102	0xbd9b879c	-0.07594225
103	0x3dee3c20	0.11632562
104	0xbcfb38fa	-0.030666817
105	0x3dce3d0c	0.100702375
106	0xbbf403bc	-0.0074467342
107	0x3c081846	0.0083065685
108	0x3c1035f4	0.008801926
109	0xbd282127	-0.04104724
110	0x3db39a85	0.08769707
111	0xbcbb19fa	-0.022839535
112	0x3cb11541	0.02161658
113	0xbdc05871	-0.09391869
114	0x3d9fe19e	0.07806705
115	0x3d858495	0.06519429
116	0xbdc53884	-0.0962992
117	0x3da5f0cc	0.08102569
118	0xbd56fc14	-0.052486494
119	0xbd9e50e8	-0.077302754
120	0xbc7d88ed	-0.01547454
121	0xbdbd4108	-0.09240919
122	0xbccd8092	-0.025085721
123	0xbd520bf5	-0.051280934
124	0xbde331af	-0.11093461
125	0xbd5dc123	-0.054139268
126	0x3e027f20	0.12743807
127	0x3d332429	0.043735657
128	0xbde82ff4	-0.11337271
129	0xbde39813	-0.1111299
130	0x3bc4cdad	0.006005964
131	0xbdb0ac7d	-0.086266495
132	0xbdefd9d0	-0.11711466
133	0x3d1af9c5	0.037835855
134	0x3d9b73f3	0.07590475
135	0xbde769f4	-0.11299506
136	0xbdf2139a	-0.11820145
137	0xbc3d0535	-0.011536886
138	0x3dc21cf8	0.094781816
139	0x3d8a8b68	0.06764871
140	0xbd87aa5f	-0.066242926
141	0xbddd2074	-0.107972056
142	0x3d7e860b	0.062139552
143	0xbdd7442b	-0.10511049
144	0x3da77600	0.081768036
145	0xbe05f882	-0.1308308
146	0x3d314880	0.043282032
147	0xbd00c98a	-0.031442203
148	0x3de65228	0.11246139
149	0xbd3d880b	-0.04627232
150	0x3bf96836	0.0076113
151	0x3df1188e	0.117722616
152	0x3d38bb1b	0.045100313
153	0x3d4300f8	0.047608346
154	0xbd7c0bc5	-0.06153466
155	0xbd2195b4	-0.03944941
156	0x3d04a0ed	0.032380033
157	0xbdbefbf4	-0.093254
158	0xbd4122fc	-0.047152504
159	0x3dbe732f	0.09299313
160	0xbdf5da74	-0.12004557
161	0xbdbc58fa	-0.091966584
162	0xbded8f59	-0.11599607
163	0xbd0a3ea4	-0.033751145
164	0x3d018c97	0.031628218
165	0x3d3a6c4d	0.04551344
166	0x3d4b6395	0.049655516
167	0xbd943636	-0.072369024
168	0xbcac1549	-0.021006243
169	0xbd9efe37	-0.077633314
170	0x3d60cf8d	0.054885436
171	0xbdc19940	-0.09453058
172	0xbcb6ba6f	-0.022305695
173	0xbda48968	-0.08034021
174	0x3dce9198	0.100863636
175	0xbd5f0ba2	-0.054454453
176	0xbd97c3bc	-0.0741038
177	0xbdd48c8c	-0.1037837
178	0x3dda1e2e	0.106502876
179	0xbcc2ddce	-0.023787405
180	0x3d5d1bc9	0.053981576
181	0x3dee4bce	0.11635552
182	0xbc0a72dd	-0.008450237
183	0xbd943a07	-0.0723763
184	0xbcf05a39	-0.029339897
185	0xba874a13	-0.0010321758
186	0xbd077fea	-0.033080973
187	0xbd26ef1b	-0.040755372
188	0x3ddbce1e	0.10732673
189	0x3d172795	0.036902983
190	0x3d497fdc	0.0491942
191	0xbd8c05dc	-0.06837055
192	0xbc8b575b	-0.017009428
193	0xbd72db30	-0.059291065
194	0xbc376505	-0.0111935185
195	0xbb35e7c4	-0.0027756551
196	0xbd9890ad	-0.0744947
197	0x3d86f282	0.065892234
198	0x3d3c238e	0.045932345
199	0xbddca15f	-0.107729666
200	0xbd741a0d	-0.059595156
201	0xbd590c76	-0.0529904
202	0x3ca99b4e	0.020703938
203	0xbb934a9a	-0.004494977
204	0xbdfff3c2	-0.12497665
205	0x3dacdeb8	0.08440918
206	0x3e0bbf43	0.1364718
207	0x3d53bbde	0.051692836
208	0x3ce40ab9	0.027837144
209	0xbd3e7607	-0.04649928
210	0x3d3479a3	0.044061314
211	0xbdc6a0e1	-0.09698654
212	0xbd5ce74c	-0.05393152
213	0xbe00763a	-0.125451
214	0xbdb0b467	-0.08628159
215	0x3c05e61f	0.008172541
216	0x3d954987	0.07289415
217	0x3d58b7d2	0.05290968
218	0xbd393e3f	-0.045225378
219	0x3d255a01	0.040369038
220	0x3d4982f9	0.04919717
221	0xbc97f18e	-0.0185478
222	0x3d7f38c3	0.06230999
223	0x3d392123	0.045197617
224	0x3beb00f2	0.0071717435
225	0xbe0573e4	-0.1303249
226	0x3cdd2cb6	0.026998859
227	0x3c924b8b	0.017858287
228	0x3c1519a3	0.009100351
229	0x3d7c2e7f	0.06156778
230	0xbc9ba599	-0.018999862
231	0x3c3d2942	0.011545481
232	0x3d79d6d9	0.06099591
233	0xbe01165c	-0.12606186
234	0x3d104a3e	0.035227053
235	0x3d6c8a02	0.057748802
236	0x3bcf85c7	0.006333086
237	0x3d3c697b	0.04599903
238	0xbd615d5c	-0.055020675
239	0xbd8af8a6	-0.06785707
240	0xbdaf12d7	-0.08548515
241	0xbd9bf467	-0.076149754
242	0x3c1cb784	0.009565238
243	0x3db4653e	0.08808373
244	0x3d848c22	0.06472041
245	0xbcb35aaa	-0.021893818
246	0xbd8f42b9	-0.06995148
247	0xbc69b027	-0.014263189
248	0xbd23a09e	-0.0399481
249	0x3c8745a1	0.016512694
250	0xbe08543d	-0.13313384
251	0xbd040915	-0.032235224
252	0x3db4d8b6	0.08830397
253	0xbdcd9503	-0.10038187
254	0x3d439bda	0.047756054
255	0xbdcbe149	-0.09955079

fc_net.fc_net.2.bias f4 [64]
0	0xbcb76e0b	-0.02239134
1	0x3dddafa8	0.108245194
2	0x3b58535e	0.0033008675
3	0x3dab3813	0.08360305
4	0x3886457d	6.402561e-05
5	0xbe02a861	-0.12759544
6	0x3cfd9e1c	0.030959181
7	0x3ddbc2ba	0.107305005
8	0x3ddd85a4	0.108165056
9	0xbba35eac	-0.004985651
10	0x3dd2238b	0.102606855
11	0x3e008a23	0.12552695
12	0x3d86bf7d	0.06579492
13	0x3c804e05	0.015662203
14	0x3d53045e	0.051517837
15	0xba36c56d	-0.0006972168
16	0x3d7103da	0.058841564
17	0xbdee4c30	-0.11635625
18	0xbbf1ccd8	-0.0073791556
19	0xbcabd3fe	-0.02097511
20	0xbdbb4be4	-0.09145334
21	0x3ba2148a	0.004946296
22	0x3de8bd37	0.11364215
23	0xbd9e4753	-0.07728448
24	0x3d81690a	0.06318863
25	0xbdcb9973	-0.099413775
26	0xbd732f6f	-0.059371408
27	0xbdce3d2e	-0.10070263
28	0x3db9ded6	0.09075706
29	0xbd9c4c51	-0.07631744
30	0xbd0e5c85	-0.034756202
31	0x3c550493	0.013001579
32	0x3dcb701f	0.09933495
33	0xbccf338c	-0.025293134
34	0xbcc6653c	-0.024218194
35	0xbde2eca2	-0.110802904
36	0xbd46530a	-0.048419036
37	0xbcc87eab	-0.024474462
38	0x3d57f72a	0.05272595
39	0xbd24b1ea	-0.040208735
40	0xbdd0c2d9	-0.10193414
41	0x3d42d318	0.047564596
42	0x3de5a17d	0.11212442
43	0x3d5e8833	0.05432911
44	0x3d0754f0	0.033039987
45	0x3da0e41a	0.07856007
46	0xbd974cb6	-0.07387678
47	0x3d886ce1	0.06661392
48	0x3d937a55	0.07201067
49	0xbc7b0bec	-0.015322667
50	0xbdd47291	-0.10373414
51	0xbdaa2180	-0.08307171
52	0xbdbd303c	-0.092377156
53	0xbddf7cc1	-0.10912467
54	0x3c872d65	0.016501138
55	0x3bb391ab	0.0054800115
56	0xbe026f74	-0.12737828
57	0x3d3658df	0.044518348
58	0x3d64a553	0.055821728
59	0xbda10966	-0.07863121
60	0xbdd40dbc	-0.10354182
61	0xbcf5d533	-0.030008888
62	0x3d641b9a	0.055690385
63	0xbd429e20	-0.04751408

fc_net.conv_net.0.weight f4 [4, 1, 4, 4]
0	0x3dfd1b0c	0.123586744
1	0x3d3230d8	0.043503612
2	0x3e25a2ba	0.16175357
3	0x3e1dc378	0.15406597
4	0xbe32cd26	-0.1746107
5	0xbe466a66	-0.19376525
6	0x3e031088	0.12799275
7	0x3ceec6e0	0.029147565
8	0x3e7367ae	0.2377002
9	0xbc2c9140	-0.010532677
10	0x3da83514	0.08213249
11	0xbd45ef20	-0.04832375
12	0xbc154c80	-0.009112477
13	0xbdeab360	-0.11459994
14	0xbdc926a8	-0.09821826
15	0x3dc8f7a4	0.09812859
16	0xbe1eddc4	-0.15514284
17	0x3df5ae80	0.11996174
18	0x3e793d44	0.24339777
19	0x3e7802c0	0.24219799
20	0xbdc76840	-0.09736681
21	0x3e3caaac	0.18424481
22	0xbe32ea4e	-0.17472193
23	0x3e743ae4	0.2385059
24	0x3e402c7a	0.18766966
25	0xbd402748	-0.04691246
26	0xbd232570	-0.039830625
27	0xbc7ecfe0	-0.015552491
28	0x3d8c6434	0.0685505
29	0xbde66f94	-0.112517506
30	0xbe3262d2	-0.1742051
31	0x3df50148	0.11963135
32	0x3e5df932	0.21677092
33	0x3e02b9aa	0.12766138
34	0xbe7d957c	-0.24764055
35	0xbe15bcba	-0.14622775
36	0xbe201680	-0.15633583
37	0xbd8188e4	-0.06324938
38	0xbe6f911e	-0.23395202
39	0xbd8d7190	-0.06906426
40	0xbe16553c	-0.14680952
41	0xbe74ad22	-0.2389417
42	0x3e3833b0	0.17988467
43	0xbe131340	-0.14362812
44	0xbe67fc0e	-0.22654745
45	0x3e5913e2	0.21198991
46	0xbc4465c0	-0.01198715
47	0x3b7f3780	0.0038942993
48	0x3e60e4b4	0.21962243
49	0xbe04b5b8	-0.12959945
50	0xbe0e854a	-0.13918033
51	0xbd090f00	-0.03346157
52	0x3da09714	0.07841316
53	0x3da03b8c	0.07823858
54	0x3a11f000	0.0005567074
55	0xbe2a381c	-0.16622967
56	0xbd99bb6c	-0.07506451
57	0xbde0566c	-0.10953984
58	0x3e18b87a	0.14914122
59	0xbe77092e	-0.24124596
60	0x3c7ef7a0	0.015561968
61	0xbdf7f394	-0.12107006
62	0xbe5c1e9a	-0.21496049
63	0x3e7a6aa4	0.24454743

fc_net.conv_net.0.bias f4 [4]
0	0xbd90bf80	-0.07067776
1	0xbd728b08	-0.05921462
2	0x3da18b24	0.07887867
3	0x3de0d3f0	0.10977924

fc_net.conv_net.2.weight f4 [8, 4, 4, 4]
0	0x3dac9f78	0.08428854
1	0xbda20a4e	-0.07912122
2	0x3da56c0a	0.080772474
3	0xbc019010	-0.007907882
4	0xbdc58654	-0.09644762
5	0xba98f280	-0.001166895
6	0xbdc3b178	-0.09555334
7	0x3d5b617c	0.053559765
8	0xbb979f20	-0.0046271235
9	0x3dbf2db8	0.09334892
10	0x3d955892	0.07292284
11	0x3d985c5c	0.07439491
12	0xbda47018	-0.08029193
13	0xbdfd3a0c	-0.12364587
14	0xbdd44df8	-0.10366434
15	0x3d71a328	0.05899349
16	0x3d5b55a8	0.053548485
17	0xbd8ec054	-0.069702774
18	0xbd22e890	-0.03977257
19	0x3d5293e0	0.051410556
20	0x3d7422a0	0.059603333
21	0x3cbdef38	0.023185357
22	0xbdb0bce8	-0.08629781
23	0x3df5c6ea	0.120008305
24	0xbd90c2bc	-0.07068393
25	0xbd7dda48	-0.061975747
26	0xbddc51b2	-0.1075777
27	0x3cbdb0d8	0.023155615
28	0x3d8841ec	0.066531986
29	0xbdffcd14	-0.124902874
30	0xbd32c0c4	-0.043640867
31	0x3d70567c	0.058676228
32	0xbd4f3528	-0.050587803
33	0x3d107bb4	0.035274222
34	0xbdbe3f92	-0.09289469
35	0x3d2b4e4c	0.041822717
36	0xbc9d2670	-0.019183367
37	0xbb877c20	-0.00413467
38	0x3dc24f92	0.09487833
39	0x3d7e78cc	0.06212692
40	0xbce46cc8	-0.027883902
41	0x3b2aa980	0.0026040971
42	0x3d39dd5c	0.04537712
43	0x3da24fa8	0.079253495
44	0xbc8d5cd8	-0.017256185
45	0x3dd8af72	0.105803385
46	0x3cba7078	0.022758707
47	0xbb93fba0	-0.00451608
48	0x3d8ccb86	0.068747565
49	0xbde6aff0	-0.11264026
50	0xbdb8dd54	-0.0902659
51	0x3d9798f8	0.07402223
52	0x3d67a9c8	0.0565584
53	0xbd50ef54	-0.05100949
54	0x3d1ef060	0.03880346
55	0xbdbc3bce	-0.09191094
56	0xbc822cc0	-0.01589048
57	0x3dd4a0d6	0.103822395
58	0xbdccbe14	-0.09997192
59	0x3df5f848	0.120102465
60	0xbc0b6100	-0.008507013
61	0x3d9abcd2	0.07555546
62	0x3dc11d9a	0.09429474
63	0x3df4303c	0.119232625
64	0x3c12e6a0	0.008966118
65	0x3c5b8cc0	0.013400257
66	0xbd845aec	-0.064626545
67	0xbdd86ca2	-0.10567595
68	0xbc19a1c0	-0.009376943
69	0x3db2f798	0.08738631
70	0x3c0c97d0	0.008581117
71	0xbdbd588e	-0.09245406
72	0xbcef6540	-0.029223084
73	0x3da04f44	0.07827619
74	0x3da73018	0.0816347
75	0xbda68ca4	-0.08132294
76	0x3dcce36e	0.10004316
77	0xbd4c030c	-0.049807593
78	0xbdf33872	-0.118760005
79	0x3c3946b0	0.011308357
80	0x3d657350	0.056018174
81	0xbdbb0320	-0.091314554
82	0x3d4ac1b4	0.049501136
83	0x3dee45d2	0.11634411
84	0xbd807424	-0.06272152
85	0x3dc418b0	0.09575021
86	0xbd32ae74	-0.043623403
87	0x3d30f04c	0.043197915
88	0x3db72616	0.08942811
89	0x3db542cc	0.08850631
90	0x3db3b76e	0.08775221
91	0xbd8b5e4e	-0.068050966
92	0x3ad6fd00	0.0016402304
93	0x3cc77ce8	0.024351552
94	0xbdfde36e	-0.123968944
95	0x3d90f7c0	0.070785046
96	0xbcb8ce08	-0.02255918
97	0xbca7a048	-0.02046217
98	0x3c863cd0	0.01638642
99	0xbdd14236	-0.10217707
100	0x3d26cc60	0.04072225
101	0x3df134d0	0.11777651
102	0xbd9fb9ce	-0.07799111
103	0x3c962080	0.018326044
104	0x3dfb9a48	0.12285286
105	0x3bf16600	0.0073668957
106	0x3cf96b00	0.03044653
107	0x3dc35c3a	0.09539075
108	0xbd9ae4e2	-0.07563187
109	0x3ba70440	0.005096942
110	0xbd351594	-0.04421003
111	0x3d72ac90	0.0592466
112	0xbdfae392	-0.12250437
113	0xbd999e7a	-0.0750093
114	0xbd1f4f6c	-0.038894102
115	0xbd98bd10	-0.07457936
116	0xbcba91f0	-0.022774667
117	0xbdb6da0c	-0.08928308
118	0xbca13b88	-0.019681707
119	0xbd81318c	-0.063082784
120	0xbcb6c7b0	-0.022312015
121	0xbde6dd7c	-0.112727135
122	0xbda66d20	-0.08126283
123	0xbd11e2a8	-0.035616547
124	0xbdeb9298	-0.1150257
125	0xbda6848a	-0.081307486
126	0xbdac6c7c	-0.08419129
127	0xbdd88468	-0.105721295
128	0x3df59768	0.11991769
129	0x3df89cf2	0.1213931
130	0x3dfe8d5a	0.124293044
131	0x3df1fb4a	0.11815508
132	0xbca26638	-0.019824132
133	0x3dfc4152	0.12317146
134	0xbd85f118	-0.065401256
135	0xbc256cf0	-0.0100967735
136	0xbdc6709e	-0.09689449
137	0x3d3750b0	0.044754684
138	0x3d8fe10e	0.07025348
139	0xbd5db788	-0.054130107
140	0x3d74bb60	0.059749007
141	0x3c3c5ce0	0.0114967525
142	0xbd451b7c	-0.048121914
143	0x3dfaa4dc	0.12238476
144	0xbd448e9c	-0.047987565
145	0x3d9f00cc	0.07763824
146	0xbd3baeb0	-0.04582089
147	0xbb092140	-0.002092436
148	0x3c833db8	0.01602064
149	0xbd8a6df8	-0.06759256
150	0xbd27d6ac	-0.04097621
151	0xbd9ad4e8	-0.0756014
152	0xbdd1d846	-0.10246329
153	0xbc2d9e90	-0.010596886
154	0x3cda3420	0.026636183
155	0xbda48090	-0.08032334
156	0x3ded0bf2	0.11574544
157	0x3dafb9da	0.0858037
158	0x3cd3af68	0.025840476
159	0x3dd88540	0.105722904
160	0x3dbac900	0.09120369
161	0xbd8c813a	-0.068605855
162	0xbc1e3ef0	-0.00965856
163	0x3da92278	0.082585275
164	0xbcb691d0	-0.022286326
165	0xbdf96390	-0.12177193
166	0x3cdd6760	0.027026832
167	0x3c383870	0.0112439245
168	0x3da9e702	0.08296014
169	0xbbe6e000	-0.007045746
170	0xbd2aa534	-0.041661456
171	0x3d42aa38	0.047525615
172	0xbd15246c	-0.036411688
173	0xbb968f00	-0.0045946836
174	0x3d915970	0.07097137
175	0x3d77d648	0.06050709
176	0x3dafc172	0.08581819
177	0xbd3f27f8	-0.046668977
178	0xbdf11596	-0.11771695
179	0xbd84c5b8	-0.06483024
180	0x3ce38018	0.02777104
181	0xbdafe426	-0.08588438
182	0xbcd80518	-0.026369616
183	0xbcc18e00	-0.023627281
184	0xbd9d916a	-0.07693751
185	0x3ddbaa5e	0.10725854
186	0x3df1d514	0.118082196
187	0x3ce6dc98	0.02818136
188	0x3d8d23b4	0.068915755
189	0xbbed6640	-0.007244855
190	0x3dc30404	0.0952225
191	0x3bf83d40	0.007575661
192	0xbd9b69c2	-0.07588531
193	0xbde91d00	-0.113824844
194	0x3da9f432	0.0829853
195	0xbde08d80	-0.10964489
196	0x3d4f3da8	0.05059591
197	0x3cb0c1d8	0.021576807
198	0x3c195910	0.009359613
199	0x3ca0d3b0	0.01963219
200	0xbdd705d8	-0.104991615
201	0x3c5fdcf0	0.013663515
202	0x3dc9d96a	0.098559216
203	0xbdd595a2	-0.10428931
204	0xbdb981ec	-0.09057984
205	0x3d799fd4	0.06094344
206	0xbda3fe46	-0.08007483
207	0xbd839ebe	-0.06426762
208	0x3cbc2070	0.022964686
209	0x3dd09b44	0.101858646
210	0x3de2b03a	0.11068769
211	0x3d947fd8	0.07250947
212	0x3d61acac	0.055096313
213	0x3b886f80	0.0041636825
214	0x3df5fc42	0.12011005
215	0x3de52d9e	0.111903414
216	0xbd5ef4e0	-0.05443275
217	0x3d23c3ac	0.03998153
218	0xbda2d5b8	-0.0795092
219	0x3d10c57c	0.035344586
220	0x3d9ab172	0.07553376
221	0x3c58c310	0.0132301
222	0x3c1ace10	0.009448543
223	0xbc7ac400	-0.015305519
224	0x3c667900	0.014066935
225	0x3c69eda0	0.014277846
226	0x3c342730	0.010995671
227	0x3d941aa4	0.07231644
228	0xbd3a0478	-0.045414418
229	0x3dfd428a	0.12366207
230	0xbaf5aa80	-0.001874283
231	0xbdcde4d4	-0.10053411
232	0x3dce11be	0.10061978
233	0xbd9d9d0e	-0.076959714
234	0xbdae1422	-0.08499934
235	0x3df59286	0.11990838
236	0x3d7f5f1c	0.062346563
237	0x3dbf66e6	0.09345798
238	0x3d2e88f0	0.042611063
239	0xbda08b56	-0.07839076
240	0x3d5eb1b0	0.054368675
241	0x3d994304	0.07483485
242	0xbd0784e4	-0.03308572
243	0x3d93ea02	0.07222368
244	0x3d0840a8	0.033264786
245	0x3cad1db0	0.02113232
246	0xbda84798	-0.082167804
247	0x3dd3cdf8	0.1034202
248	0xbdab9898	-0.08378714
249	0x3ddf6e3a	0.10909696
250	0x3d96653c	0.07343528
251	0xbdc73818	-0.09727496
252	0xbd1b4dfc	-0.03791617
253	0x3dd91396	0.10599439
254	0x3dffdc28	0.12493163
255	0x3d58a1cc	0.052888677

fc_net.conv_net.2.bias f4 [8]
0	0x3dedd712	0.11613287
1	0x3d580f74	0.052749112
2	0xbdfef4ea	-0.124490574
3	0xbc176c00	-0.009242058
4	0xbdb29698	-0.0872013
5	0x3d738304	0.059451118
6	0xbc92a358	-0.017900154
7	0x3ce5a660	0.028033435

fc_net.conv_net.4.weight f4 [4, 8, 4, 4]
0	0xbd465c19	-0.048427675
1	0x3cd878d8	0.02642481
2	0x3db35821	0.08757044
3	0x3db025e3	0.08600976
4	0x3d23ab32	0.039958186
5	0x3daf7079	0.08566374
6	0xbc0be288	-0.008537896
7	0x3c9fca64	0.019505687
8	0x3ce9a2ac	0.02851995
9	0xbd481f2e	-0.04885786
10	0xbd6ad144	-0.057328478
11	0xbd2b9bd3	-0.041896652
12	0x3da2c027	0.079468064
13	0xbd12fd1b	-0.03588591
14	0x3cc2077c	0.02368521
15	0x3d990db9	0.074733205
16	0xbd7e2eb2	-0.06205625
17	0x3dabe8a3	0.08393981
18	0xbc1a3178	-0.009411208
19	0xbd57b29f	-0.05266058
20	0x3db160f3	0.0866107
21	0xbdaf637f	-0.08563899
22	0xbbc785c0	-0.0060889423
23	0x3d6327ba	0.055457808
24	0xbcefe878	-0.029285654
25	0x3d33b0e6	0.043869875
26	0xbd3dcf3a	-0.046340205
27	0xbd9ac964	-0.075579435
28	0x3d5fe3f6	0.05466076
29	0x3c0f0ff0	0.008731827
30	0x3c91b180	0.017784834
31	0x3d8db1bf	0.06918668
32	0x3d753d06	0.05987265
33	0x3d37a1f2	0.044832177
34	0x3d723bde	0.059139125
35	0xbcf9e908	-0.030506626
36	0xbdac37f9	-0.084091134
37	0x3c5e4788	0.013566859
38	0x3cfb7930	0.030697435
39	0xbcaa171c	-0.020762973
40	0xbd6d7ca7	-0.057980206
41	0xbc7670f0	-0.015041575
42	0x3ce57084	0.028007753
43	0x3bb4f750	0.005522646
44	0xbcf87c02	-0.030332569
45	0x3da0958b	0.07841023
46	0xbc0f56a8	-0.008748688
47	0xbcda05fe	-0.026614185
48	0x3d107c6c	0.035274908
49	0xbca9cad8	-0.020726606
50	0xba13e400	-0.00056415796
51	0xbac2b080	-0.0014853626
52	0xbd5eccd8	-0.054394573
53	0xbcb021b4	-0.021500446
54	0x3d5edb9a	0.054408647
55	0x3c00c5f8	0.007859699
56	0x39ada900	0.00033123046
57	0x3bd29f90	0.0064277127
58	0xbda09e66	-0.07842712
59	0xbd8a2b93	-0.067465924
60	0xbd876a56	-0.06612079
61	0xbd943308	-0.07236296
62	0xbd3b96cb	-0.045798104
63	0x3d26cc3a	0.04072211
64	0x3bded140	0.006799847
65	0x3d240632	0.04004497
66	0xbcc5a4d4	-0.024126448
67	0x3da4ca61	0.08046413
68	0xbca58978	-0.020207152
69	0xbc34da50	-0.011038378
70	0x3d809829	0.06279022
71	0x3d21591e	0.03939163
72	0xbc99e3b8	-0.018785343
73	0xbaaba9c0	-0.0013096854
74	0x3d0b5256	0.03401407
75	0xbd322263	-0.043489825
76	0xbcc13f38	-0.023589715
77	0x3d2e0126	0.042481564
78	0x3d0fed74	0.035138562
79	0xbd16a1a9	-0.036775265
80	0x3d3eed1a	0.046612836
81	0x3d83607b	0.064148866
82	0x3d95d619	0.073162265
83	0xbd9fbbc4	-0.07799485
84	0x3d72512e	0.05915945
85	0xbdb244a9	-0.08704502
86	0xbc9b59e4	-0.018963762
87	0x3d833acd	0.064077
88	0x3c623380	0.013806224
89	0xbd23f11b	-0.040024858
90	0xbda04191	-0.07825006
91	0x3da06715	0.07832161
92	0x3cfac84c	0.030613087
93	0x3d3792f6	0.044817887
94	0xbd28bfed	-0.04119866
95	0xbd58b733	-0.052909087
96	0x3d85e619	0.06538028
97	0xbcb73784	-0.02236534
98	0xbd83a6d4	-0.06428304
99	0x3d875203	0.06607439
100	0x3c382d20	0.011241227
101	0xbd3f9ec2	-0.046782263
102	0xbcb8d198	-0.02256088
103	0xbdaba40e	-0.083809
104	0xbb9e8720	-0.0048378855
105	0x3cb70e98	0.022345826
106	0xbda25c06	-0.07927708
107	0x3c91db08	0.017804638
108	0x3da8a76b	0.082350574
109	0x3d168556	0.036748253
110	0x3d5c5cb2	0.05379934
111	0x3d45cfee	0.048294
112	0xbd919869	-0.07109148
113	0x3d788782	0.060676105
114	0xbb4bc780	-0.0031094253
115	0xbd21d056	-0.039505325
116	0xbd9cc93b	-0.07655569
117	0x3d9fec71	0.078087695
118	0xbcb24d5c	-0.021765403
119	0xbd33a940	-0.04386258
120	0xbd2aef04	-0.04173185
121	0xbc8977a0	-0.016780674
122	0xbbfaf0a0	-0.0076580793
123	0xbdb4f367	-0.08835488
124	0x3c1927a8	0.009347834
125	0xbcad24fc	-0.0211358
126	0xbc90bd8c	-0.017668508
127	0xbc984284	-0.018586405
128	0xbd66bd78	-0.056333035
129	0x3d1cc0be	0.03826975
130	0xbd638ae7	-0.05555239
131	0xbc5ae310	-0.0133598
132	0x3dad298b	0.08455189
133	0x3ccc9ad8	0.024976179
134	0xbc38c718	-0.011277936
135	0xbd2910ca	-0.041275777
136	0xbd4360ef	-0.047699865
137	0x3c9fe9dc	0.019520693
138	0xbd93715e	-0.071993575
139	0xbd9f7102	-0.077852264
140	0x3da493e1	0.08036018
141	0xbce3a1c6	-0.0277871
142	0xbdab400d	-0.08361826
143	0xbd38d489	-0.045124564
144	0x3d4f87da	0.050666668
145	0x3cc59138	0.024117097
146	0x3d0e7906	0.034783386
147	0xbd535dc4	-0.051603094
148	0x3c751a38	0.014959864
149	0x3d9cb249	0.07651193
150	0x3c8f9a90	0.017529756
151	0xbdaa1cb0	-0.08306253
152	0x3d8074c7	0.062722735
153	0x3a052f80	0.00050806254
154	0x3cf9c478	0.030489191
155	0x3d9b2375	0.07575122
156	0x3d184242	0.037172563
157	0x3d863755	0.065535225
158	0x3d87f655	0.06638781
159	0xbda80ed8	-0.08205956
160	0xbd3968a1	-0.045265798
161	0x3d8cda25	0.06877545
162	0x3d6bcf82	0.05757094
163	0x3c8d65f8	0.017260537
164	0xbd26b6be	-0.04070162
165	0xbc19c2c8	-0.009384818
166	0xb9c94f00	-0.00038396567
167	0xbdb12acd	-0.08650742
168	0xbcbed2b0	-0.023293823
169	0xbc1695a8	-0.009190954
170	0xbd9c008c	-0.07617292
171	0xbd28701a	-0.041122533
172	0x3d1bfe5e	0.03808438
173	0x3d7ba2b2	0.061434455
174	0xbd0dddd2	-0.034635372
175	0xbbe164b0	-0.006878458
176	0xbd4bdd00	-0.04977131
177	0xbd98b63d	-0.07456634
178	0xbd200a0b	-0.039072078
179	0xbcbdffac	-0.023193203
180	0xbd9663ce	-0.07343255
181	0xbc47b408	-0.012188919
182	0xbb5aaf00	-0.0033368468
183	0x3d738be6	0.05945959
184	0xbcf31730	-0.029674143
185	0xbc8cb460	-0.017175853
186	0x3daab5e5	0.08335475
187	0xbd204d38	-0.03913614
188	0xbc84f79c	-0.01623135
189	0x3d64c63e	0.05585312
190	0x3d8abd4d	0.067743875
191	0xbd93a752	-0.07209648
192	0xbcc50d0c	-0.024054073
193	0xbd473b8c	-0.048640773
194	0x3cd93d98	0.026518628
195	0xbc428690	-0.0118729025
196	0xbc954d98	-0.018225476
197	0xbbaf8630	-0.0053565726
198	0x3b56c840	0.0032773167
199	0x3d6444ea	0.055729784
200	0x3d574462	0.05255545
201	0xbd08513e	-0.033280604
202	0xbd5c9cea	-0.053860582
203	0xbc91c0c0	-0.017792106
204	0x3db298b1	0.0872053
205	0x3d6bfe8e	0.05761581
206	0x3d99b839	0.07505841
207	0xbda4b738	-0.08042759
208	0x3d41b1be	0.04728865
209	0xbc3ccd88	-0.011523612
210	0x3d968781	0.07350064
211	0xbd874ee5	-0.06606845
212	0xbb08f260	-0.002089642
213	0x3d0d5cf4	0.034512475
214	0xb8943400	-7.066876e-05
215	0x3d251312	0.04030139
216	0xbdb00572	-0.085947886
217	0x3c443530	0.0119755715
218	0xbd843e84	-0.064572364
219	0x3d99858b	0.074961744
220	0xbcb28778	-0.021793112
221	0xbd4d07c6	-0.05005624
222	0x3d39a9ee	0.045328073
223	0xbda776a8	-0.08176929
224	0xbd43e89c	-0.047829255
225	0x3c73c8d0	0.01487942
226	0xbd3dc6b0	-0.04633206
227	0xbc9e54b4	-0.019327499
228	0xbd8d21a2	-0.068911806
229	0xbd01491b	-0.03156386
230	0x3d368fb2	0.044570632
231	0xbda30037	-0.07959025
232	0x3da7bf7d	0.0819082
233	0x3d8844fd	0.066537835
234	0x3b3a53e0	0.002843134
235	0x3d54a00a	0.051910438
236	0xbd5929c6	-0.053018354
237	0x3d3f93ae	0.046771698
238	0x3da5a3b5	0.08087865
239	0xbd44a0b0	-0.048004806
240	0x3d738d06	0.059460662
241	0xbda31731	-0.07963408
242	0x3d42d116	0.04756268
243	0x392c0600	0.00016405433
244	0xbd9d5382	-0.076819435
245	0x3cda5778	0.026653036
246	0xbd30ff91	-0.043212477
247	0xbd518d51	-0.05116016
248	0xbd04a3a7	-0.032382634
249	0x3d3601e2	0.04443539
250	0xbcf03d02	-0.029325966
251	0x3db00a45	0.08595709
252	0xbcaffb74	-0.021482207
253	0x3d24c892	0.04023034
254	0x3c912934	0.017719842
255	0x3d840cd5	0.0644776

fc_net.conv_net.4.bias f4 [4]
0	0xbc9cdeac	-0.019149147
1	0x3d70a57a	0.05875156
2	0x3d804873	0.062638186
3	0xbd491d32	-0.04910011

fc_net.conv_net.6.weight f4 [1, 4, 4, 4]
0	0x3d458cac	0.04822986
1	0xbdf49efe	-0.11944388
2	0x3de324ca	0.11091001
3	0xbc18fcc0	-0.009337604
4	0xbdd1035a	-0.102057174
5	0x3de119fc	0.10991284
6	0x3c6561d0	0.014000371
7	0xbbbff060	-0.0058575124
8	0xbdbac73e	-0.09120034
9	0xbc24b9a0	-0.010054022
10	0xbd8ef92a	-0.06981118
11	0x3ddaffae	0.10693298
12	0xbdd03ec4	-0.101682216
13	0xbcc632c8	-0.024194136
14	0xbdb31f6e	-0.08746229
15	0xbde68f6c	-0.11257824
16	0xbdeee940	-0.11665583
17	0xbd88e164	-0.06683615
18	0x3db259a4	0.08708504
19	0xbd2751dc	-0.04084955
20	0x3dfd61de	0.12372182
21	0x3d38d1c8	0.045121938
22	0xbcb632b8	-0.022240981
23	0xbd8c9462	-0.06864239
24	0xbcd53bb8	-0.026029453
25	0xbdf26c82	-0.118371025
26	0x3d11cf60	0.03559816
27	0x3d2d6e04	0.042341247
28	0x3ce4f490	0.027948648
29	0xbd8f6f7a	-0.07003684
30	0xbd6ff208	-0.05858043
31	0xbdbba560	-0.09162402
32	0x3c691360	0.014225811
33	0x3d7a0608	0.061040908
34	0xbdb541de	-0.08850454
35	0x3dcae152	0.09906258
36	0x3df77cb2	0.120843306
37	0x3d4bb034	0.049728587
38	0x38f99000	0.00011900067
39	0xbd43b194	-0.047776774
40	0x3be6c460	0.0070424527
41	0xbd54c67c	-0.051947102
42	0xbd4e0b40	-0.050303698
43	0xbd0d6788	-0.034522563
44	0x3d286430	0.04111117
45	0xbc4d7540	-0.012540162
46	0x3d8a341c	0.0674822
47	0xbbe68ca0	-0.007035807
48	0xbdeacf52	-0.114653245
49	0xbdfa9348	-0.12235123
50	0xbd1a0730	-0.03760451
51	0x3ace1800	0.0015723705
52	0x3db8867a	0.09010024
53	0x3c821278	0.015877947
54	0xbde2d028	-0.11074859
55	0x3dfea632	0.12434043
56	0x3d8d49a4	0.068988115
57	0xbc7ec320	-0.015549451
58	0x3d708d3c	0.05872844
59	0x3d2a85e0	0.04163158
60	0xbdcd9704	-0.100385696
61	0xbdb5192c	-0.08842692
62	0x3d580d34	0.052746966
63	0x3d03dfb4	0.03219576

action_head.weight f4 [3, 64]
0	0xbdb54112	-0.08850302
1	0xbda6dc8f	-0.08147537
2	0xbcf9868b	-0.030459663
3	0xbd76799a	-0.060174562
4	0xbd031d1a	-0.032010175
5	0x3dc2f2b1	0.09518946
6	0xbdc3ab76	-0.09554188
7	0xbdc7f10f	-0.09762775
8	0xbd95eb88	-0.07320315
9	0x3d2430e6	0.040085696
10	0xbd3f8a2a	-0.046762623
11	0x3d8be752	0.0683123
12	0xbdddc438	-0.108284414
13	0xbd6f2fa0	-0.058395028
14	0x3d770961	0.06031168
15	0x3c912a9e	0.017720517
16	0x3b9564ca	0.004559134
17	0xbb56ae73	-0.0032757788
18	0x3d740935	0.059579093
19	0xbcca36e5	-0.024684379
20	0x3dbf9a22	0.093555704
21	0x3d367fc4	0.04455544
22	0x3e1155e0	0.14192915
23	0x3de5d3cf	0.1122204
24	0xbdf15903	-0.11784556
25	0x3d3fa6dc	0.04678999
26	0x3d99992e	0.0749992
27	0x3dab74b3	0.08371868
28	0x3d415489	0.04719976
29	0x3dbff6be	0.09373234
30	0x3d0b65fc	0.034032807
31	0xbcf6e6cc	-0.03013935
32	0xbdd6d40a	-0.10489662
33	0x3def6c52	0.11690582
34	0xbdc4be09	-0.09606559
35	0x3db56cda	0.088586524
36	0x3d1b5ba5	0.037929196
37	0xbdb9b7cd	-0.0906826
38	0xbdf4add3	-0.11947217
39	0x3dda939e	0.10672687
40	0xbc7fd70a	-0.015615234
41	0x3d05bff5	0.032653768
42	0x3d52db81	0.051478866
43	0xbc0a5cef	-0.008445009
44	0x3d378a18	0.04480943
45	0xbda3e1f6	-0.08002083
46	0x3d5a7dca	0.053342618
47	0xbd464bd0	-0.048412144
48	0xbd80039a	-0.06250687
49	0x3d06cbd2	0.032909222
50	0x3ba2de37	0.0049703377
51	0xbc40a2b9	-0.011757546
52	0xbc38328a	-0.011242518
53	0x3db5305e	0.08847116
54	0x3cdd4aac	0.027013145
55	0xbd512ea5	-0.051069874
56	0xbd376cec	-0.04478161
57	0x3dfa928e	0.12234984
58	0xbe0901a4	-0.13379532
59	0x3d7d6448	0.061863214
60	0x3c074575	0.008256306
61	0x3cc2ce4b	0.023780009
62	0xbd06a18f	-0.032868918
63	0xbda67c72	-0.08129205
64	0xbd2dea73	-0.042459916
65	0xbdb83b2e	-0.08995663
66	0xbd4e8031	-0.05041522
67	0xbd21b6a1	-0.03948081
68	0x3dbc7d63	0.09203603
69	0xbddea44c	-0.10871181
70	0xbda7fde9	-0.082027264
71	0xbdbe5c64	-0.09294966
72	0xbd323712	-0.04350955
73	0x3c77c921	0.015123636
74	0xbd47dee9	-0.048796568
75	0xbe068076	-0.13134941
76	0x3dc2e8e8	0.095170796
77	0x3c54a85a	0.012979591
78	0xbd005b53	-0.031337094
79	0x3d3c3f62	0.045958884
80	0x3cbbe561	0.022936525
81	0x3d1afcfe	0.03783893
82	0xbce67aca	-0.028134722
83	0x3d9276d8	0.07151574
84	0x3ddd1a50	0.10796034
85	0xbd428e3b	-0.047498923
86	0x3d3ca338	0.046054095
87	0x3a46239e	0.0007558408
88	0xbc307a91	-0.01077141
89	0xbde28ae2	-0.11061646
90	0x3bdf5d7a	0.006816563
91	0x3da59deb	0.08086761
92	0xbc9a362d	-0.018824661
93	0xbd83fb4e	-0.06444417
94	0x3df35850	0.11882079
95	0xbcfebd35	-0.03109608
96	0x3e052fbb	0.13006489
97	0xbdb37012	-0.0876161
98	0x3dcecba7	0.10097437
99	0x3cea9837	0.028637035
100	0xbd5fccef	-0.0546388
101	0xbdc51647	-0.0962339
102	0x3df2330e	0.11826144
103	0x3da07a41	0.07835818
104	0xbd822722	-0.0635512
105	0xbd820957	-0.06349438
106	0xbd91bb47	-0.071157984
107	0x3df3a4cd	0.11896668
108	0x3da45918	0.08024806
109	0xbd5e28bf	-0.054238077
110	0x3d6eb56b	0.058278482
111	0xbdd38340	-0.10327768
112	0x3d53f92b	0.051751297
113	0xbb58ca40	-0.0033079535
114	0x3d0795fa	0.033102013
115	0xbd9cbaf0	-0.07652843
116	0x3bacd4bf	0.0052743847
117	0xbdc49ffc	-0.09600827
118	0xbd7227ce	-0.059119992
119	0x3ca97ea5	0.020690272
120	0xbd8efa67	-0.06981354
121	0x3d753ee2	0.059874423
122	0xbe048aea	-0.12943617
123	0x3dcc6128	0.099794686
124	0xbdbcf4f5	-0.09226409
125	0x3de784ed	0.113046505
126	0xbd8b998b	-0.06816395
127	0x3dff96c5	0.12479929
128	0x3d7f637d	0.06235074
129	0x3da7e4e9	0.08197958
130	0x3d992f21	0.07479692
131	0x3c6fac50	0.014628485
132	0x3c71c698	0.014756821
133	0x3e127695	0.14303048
134	0x3bf93b93	0.0076059788
135	0x3c82dae7	0.015973521
136	0xbd618cd8	-0.05506596
137	0xbde679a0	-0.11253667
138	0xbe049541	-0.12947561
139	0x3da877a1	0.082259424
140	0x3d850bfe	0.06496428
141	0xbc85d507	-0.01633693
142	0xbd364bda	-0.04450593
143	0x3d979c8d	0.074029066
144	0xbdb70053	-0.08935609
145	0x3cbf2922	0.023335043
146	0x3dbd9ad5	0.092580475
147	0xbd8798ba	-0.06620927
148	0x3dc09465	0.09403304
149	0xbdc570af	-0.09640633
150	0x3c856ce8	0.016287282
151	0xbd931ad2	-0.0718285
152	0x3d105971	0.035241548
153	0x3c996e08	0.018729225
154	0x3c84131f	0.016122399
155	0xbd19edc1	-0.037580255
156	0xbdc1b6ac	-0.0945867
157	0x3d211be6	0.039333247
158	0x3df7504e	0.12075864
159	0xbd107fea	-0.03527824
160	0x3d33fc75	0.043941934
161	0x3d51490b	0.05109505
162	0xbd5700f7	-0.052491155
163	0xbdf97c0e	-0.12181865
164	0x3d5d8329	0.054080162
165	0xbd67877b	-0.05652569
166	0xbdc7009a	-0.097169116
167	0x3d86520f	0.0655862
168	0x3d082d39	0.033246253
169	0xbdb57bf6	-0.08861534
170	0x39eaf0da	0.00044811406
171	0x3d999339	0.074987836
172	0x3ccb4383	0.024812466
173	0x3d6a535f	0.057208415
174	0xbca09983	-0.01960445
175	0x3d804e43	0.06264927
176	0xbd5015d0	-0.050802052
177	0xbcf32da7	-0.029684855
178	0xbd8e856b	-0.06959041
179	0x3cf01cba	0.029310573
180	0xbd7d88ea	-0.06189815
181	0x3ccfeafd	0.025380606
182	0x3c8613e9	0.016366916
183	0x3d753010	0.05986029
184	0xbdd56e09	-0.10421378
185	0xbcecddc9	-0.02891435
186	0x3e119d41	0.14220144
187	0x3d804c42	0.06264545
188	0xbd73eb09	-0.05955032
189	0x3db249b5	0.08705465
190	0xbca00ade	-0.019536432
191	0xbdb276eb	-0.08714088

action_head.bias f4 [3]
0	0x3dc05ddd	0.09392903
1	0xbd954244	-0.0728803
2	0x3d6885c9	0.056768212

value_head.weight f4 [1, 64]
0	0x3d358db4	0.04432459
1	0xbc95aa58	-0.018269703
2	0xbdbd7f34	-0.09252778
3	0xbca7cf59	-0.020484613
4	0xbd952d78	-0.07284063
5	0x3d5ac32c	0.053408787
6	0x3d39e65e	0.04538571
7	0xbc062849	-0.008188316
8	0xbd49f8d4	-0.049309567
9	0xbb8bafb5	-0.0042628893
10	0xbc423778	-0.011854045
11	0xbdbf0f2d	-0.093290664
12	0xbdba3a31	-0.090931304
13	0x3d9cb089	0.07650859
14	0x3c43470a	0.0119187925
15	0xbdbe3f86	-0.0928946
16	0xbde24055	-0.110474266
17	0xbab5da5d	-0.0013874281
18	0xbc798b01	-0.015230895
19	0x3db0355b	0.08603927
20	0x3d7bbefa	0.061461426
21	0x3d4fe844	0.050758615
22	0xbddee5c3	-0.10883667
23	0x3c4ddd7f	0.012565016
24	0x3b993246	0.0046751825
25	0xbc47b5f4	-0.012189377
26	0x3dcee9f7	0.10103219
27	0xbc89036e	-0.016725268
28	0x3d1b15b6	0.037862502
29	0xbd3aa73c	-0.045569643
30	0x3c943540	0.018091798
31	0x3c321f16	0.010871669
32	0x3d8cd5a3	0.068766855
33	0xbd3d1ee4	-0.046172038
34	0xbdce9dd4	-0.10088697
35	0x3be38653	0.006943503
36	0x3c04ff22	0.008117469
37	0xbcbd8930	-0.023136705
38	0xbdb0f8a6	-0.08641176
39	0xbd8bc231	-0.068241484
40	0xbdc9c65e	-0.09852289
41	0x3b246e4f	0.0025090163
42	0xbd0a7532	-0.033803172
43	0xbd283086	-0.0410619
44	0x3d2a57e6	0.041587733
45	0x3cb3bf3c	0.021941774
46	0xbd3997c3	-0.045310747
47	0xbc04835d	-0.00808796
48	0x3d851f40	0.06500101
49	0xbb78c5dd	-0.0037959733
50	0xbbfb7258	-0.007673543
51	0x3d8e53ac	0.06949553
52	0x3d80e2c6	0.062932536
53	0xbd4dffe5	-0.05029287
54	0xbcbb66c5	-0.022876153
55	0xbd838ccd	-0.0642334
56	0x3d6a6713	0.057227205
57	0xbdd3a0b1	-0.10333384
58	0x3bbdfe86	0.005798164
59	0xbda6d6b4	-0.0814642
60	0x3bffbc0b	0.007804399
61	0xbdf262bc	-0.11835238
62	0xbcd2bcbd	-0.025724763
63	0x3bf1b1f2	0.007375949
